<?xml version="1.0"?>
<net name="torch_jit" version="11">
	<layers>
		<layer id="0" name="images" type="Parameter" version="opset1">
			<data shape="1,3,640,640" element_type="f32" />
			<rt_info>
				<attribute name="old_api_map_element_type" version="0" value="f16" />
			</rt_info>
			<output>
				<port id="0" precision="FP32" names="images">
					<dim>1</dim>
					<dim>3</dim>
					<dim>640</dim>
					<dim>640</dim>
				</port>
			</output>
		</layer>
		<layer id="1" name="model.0.conv.weight_compressed" type="Const" version="opset1">
			<data element_type="f16" shape="16, 3, 6, 6" offset="0" size="3456" />
			<output>
				<port id="0" precision="FP16">
					<dim>16</dim>
					<dim>3</dim>
					<dim>6</dim>
					<dim>6</dim>
				</port>
			</output>
		</layer>
		<layer id="2" name="model.0.conv.weight" type="Convert" version="opset1">
			<data destination_type="f32" />
			<rt_info>
				<attribute name="decompression" version="0" />
			</rt_info>
			<input>
				<port id="0" precision="FP16">
					<dim>16</dim>
					<dim>3</dim>
					<dim>6</dim>
					<dim>6</dim>
				</port>
			</input>
			<output>
				<port id="1" precision="FP32" names="model.0.conv.weight">
					<dim>16</dim>
					<dim>3</dim>
					<dim>6</dim>
					<dim>6</dim>
				</port>
			</output>
		</layer>
		<layer id="3" name="/model.0/conv/Conv/WithoutBiases" type="Convolution" version="opset1">
			<data strides="2, 2" dilations="1, 1" pads_begin="2, 2" pads_end="2, 2" auto_pad="explicit" />
			<input>
				<port id="0" precision="FP32">
					<dim>1</dim>
					<dim>3</dim>
					<dim>640</dim>
					<dim>640</dim>
				</port>
				<port id="1" precision="FP32">
					<dim>16</dim>
					<dim>3</dim>
					<dim>6</dim>
					<dim>6</dim>
				</port>
			</input>
			<output>
				<port id="2" precision="FP32">
					<dim>1</dim>
					<dim>16</dim>
					<dim>320</dim>
					<dim>320</dim>
				</port>
			</output>
		</layer>
		<layer id="4" name="Reshape_151_compressed" type="Const" version="opset1">
			<data element_type="f16" shape="1, 16, 1, 1" offset="3456" size="32" />
			<output>
				<port id="0" precision="FP16">
					<dim>1</dim>
					<dim>16</dim>
					<dim>1</dim>
					<dim>1</dim>
				</port>
			</output>
		</layer>
		<layer id="5" name="Reshape_151" type="Convert" version="opset1">
			<data destination_type="f32" />
			<rt_info>
				<attribute name="decompression" version="0" />
			</rt_info>
			<input>
				<port id="0" precision="FP16">
					<dim>1</dim>
					<dim>16</dim>
					<dim>1</dim>
					<dim>1</dim>
				</port>
			</input>
			<output>
				<port id="1" precision="FP32">
					<dim>1</dim>
					<dim>16</dim>
					<dim>1</dim>
					<dim>1</dim>
				</port>
			</output>
		</layer>
		<layer id="6" name="/model.0/conv/Conv" type="Add" version="opset1">
			<data auto_broadcast="numpy" />
			<input>
				<port id="0" precision="FP32">
					<dim>1</dim>
					<dim>16</dim>
					<dim>320</dim>
					<dim>320</dim>
				</port>
				<port id="1" precision="FP32">
					<dim>1</dim>
					<dim>16</dim>
					<dim>1</dim>
					<dim>1</dim>
				</port>
			</input>
			<output>
				<port id="2" precision="FP32" names="/model.0/conv/Conv_output_0">
					<dim>1</dim>
					<dim>16</dim>
					<dim>320</dim>
					<dim>320</dim>
				</port>
			</output>
		</layer>
		<layer id="7" name="/model.0/act/Mul" type="Swish" version="opset4">
			<input>
				<port id="0" precision="FP32">
					<dim>1</dim>
					<dim>16</dim>
					<dim>320</dim>
					<dim>320</dim>
				</port>
			</input>
			<output>
				<port id="1" precision="FP32" names="/model.0/act/Mul_output_0">
					<dim>1</dim>
					<dim>16</dim>
					<dim>320</dim>
					<dim>320</dim>
				</port>
			</output>
		</layer>
		<layer id="8" name="model.1.conv.weight_compressed" type="Const" version="opset1">
			<data element_type="f16" shape="32, 16, 3, 3" offset="3488" size="9216" />
			<output>
				<port id="0" precision="FP16">
					<dim>32</dim>
					<dim>16</dim>
					<dim>3</dim>
					<dim>3</dim>
				</port>
			</output>
		</layer>
		<layer id="9" name="model.1.conv.weight" type="Convert" version="opset1">
			<data destination_type="f32" />
			<rt_info>
				<attribute name="decompression" version="0" />
			</rt_info>
			<input>
				<port id="0" precision="FP16">
					<dim>32</dim>
					<dim>16</dim>
					<dim>3</dim>
					<dim>3</dim>
				</port>
			</input>
			<output>
				<port id="1" precision="FP32" names="model.1.conv.weight">
					<dim>32</dim>
					<dim>16</dim>
					<dim>3</dim>
					<dim>3</dim>
				</port>
			</output>
		</layer>
		<layer id="10" name="/model.1/conv/Conv/WithoutBiases" type="Convolution" version="opset1">
			<data strides="2, 2" dilations="1, 1" pads_begin="1, 1" pads_end="1, 1" auto_pad="explicit" />
			<input>
				<port id="0" precision="FP32">
					<dim>1</dim>
					<dim>16</dim>
					<dim>320</dim>
					<dim>320</dim>
				</port>
				<port id="1" precision="FP32">
					<dim>32</dim>
					<dim>16</dim>
					<dim>3</dim>
					<dim>3</dim>
				</port>
			</input>
			<output>
				<port id="2" precision="FP32">
					<dim>1</dim>
					<dim>32</dim>
					<dim>160</dim>
					<dim>160</dim>
				</port>
			</output>
		</layer>
		<layer id="11" name="Reshape_168_compressed" type="Const" version="opset1">
			<data element_type="f16" shape="1, 32, 1, 1" offset="12704" size="64" />
			<output>
				<port id="0" precision="FP16">
					<dim>1</dim>
					<dim>32</dim>
					<dim>1</dim>
					<dim>1</dim>
				</port>
			</output>
		</layer>
		<layer id="12" name="Reshape_168" type="Convert" version="opset1">
			<data destination_type="f32" />
			<rt_info>
				<attribute name="decompression" version="0" />
			</rt_info>
			<input>
				<port id="0" precision="FP16">
					<dim>1</dim>
					<dim>32</dim>
					<dim>1</dim>
					<dim>1</dim>
				</port>
			</input>
			<output>
				<port id="1" precision="FP32">
					<dim>1</dim>
					<dim>32</dim>
					<dim>1</dim>
					<dim>1</dim>
				</port>
			</output>
		</layer>
		<layer id="13" name="/model.1/conv/Conv" type="Add" version="opset1">
			<data auto_broadcast="numpy" />
			<input>
				<port id="0" precision="FP32">
					<dim>1</dim>
					<dim>32</dim>
					<dim>160</dim>
					<dim>160</dim>
				</port>
				<port id="1" precision="FP32">
					<dim>1</dim>
					<dim>32</dim>
					<dim>1</dim>
					<dim>1</dim>
				</port>
			</input>
			<output>
				<port id="2" precision="FP32" names="/model.1/conv/Conv_output_0">
					<dim>1</dim>
					<dim>32</dim>
					<dim>160</dim>
					<dim>160</dim>
				</port>
			</output>
		</layer>
		<layer id="14" name="/model.1/act/Mul" type="Swish" version="opset4">
			<input>
				<port id="0" precision="FP32">
					<dim>1</dim>
					<dim>32</dim>
					<dim>160</dim>
					<dim>160</dim>
				</port>
			</input>
			<output>
				<port id="1" precision="FP32" names="/model.1/act/Mul_output_0">
					<dim>1</dim>
					<dim>32</dim>
					<dim>160</dim>
					<dim>160</dim>
				</port>
			</output>
		</layer>
		<layer id="15" name="model.2.cv1.conv.weight_compressed" type="Const" version="opset1">
			<data element_type="f16" shape="16, 32, 1, 1" offset="12768" size="1024" />
			<output>
				<port id="0" precision="FP16">
					<dim>16</dim>
					<dim>32</dim>
					<dim>1</dim>
					<dim>1</dim>
				</port>
			</output>
		</layer>
		<layer id="16" name="model.2.cv1.conv.weight" type="Convert" version="opset1">
			<data destination_type="f32" />
			<rt_info>
				<attribute name="decompression" version="0" />
			</rt_info>
			<input>
				<port id="0" precision="FP16">
					<dim>16</dim>
					<dim>32</dim>
					<dim>1</dim>
					<dim>1</dim>
				</port>
			</input>
			<output>
				<port id="1" precision="FP32" names="model.2.cv1.conv.weight">
					<dim>16</dim>
					<dim>32</dim>
					<dim>1</dim>
					<dim>1</dim>
				</port>
			</output>
		</layer>
		<layer id="17" name="/model.2/cv1/conv/Conv/WithoutBiases" type="Convolution" version="opset1">
			<data strides="1, 1" dilations="1, 1" pads_begin="0, 0" pads_end="0, 0" auto_pad="explicit" />
			<input>
				<port id="0" precision="FP32">
					<dim>1</dim>
					<dim>32</dim>
					<dim>160</dim>
					<dim>160</dim>
				</port>
				<port id="1" precision="FP32">
					<dim>16</dim>
					<dim>32</dim>
					<dim>1</dim>
					<dim>1</dim>
				</port>
			</input>
			<output>
				<port id="2" precision="FP32">
					<dim>1</dim>
					<dim>16</dim>
					<dim>160</dim>
					<dim>160</dim>
				</port>
			</output>
		</layer>
		<layer id="18" name="Reshape_185_compressed" type="Const" version="opset1">
			<data element_type="f16" shape="1, 16, 1, 1" offset="13792" size="32" />
			<output>
				<port id="0" precision="FP16">
					<dim>1</dim>
					<dim>16</dim>
					<dim>1</dim>
					<dim>1</dim>
				</port>
			</output>
		</layer>
		<layer id="19" name="Reshape_185" type="Convert" version="opset1">
			<data destination_type="f32" />
			<rt_info>
				<attribute name="decompression" version="0" />
			</rt_info>
			<input>
				<port id="0" precision="FP16">
					<dim>1</dim>
					<dim>16</dim>
					<dim>1</dim>
					<dim>1</dim>
				</port>
			</input>
			<output>
				<port id="1" precision="FP32">
					<dim>1</dim>
					<dim>16</dim>
					<dim>1</dim>
					<dim>1</dim>
				</port>
			</output>
		</layer>
		<layer id="20" name="/model.2/cv1/conv/Conv" type="Add" version="opset1">
			<data auto_broadcast="numpy" />
			<input>
				<port id="0" precision="FP32">
					<dim>1</dim>
					<dim>16</dim>
					<dim>160</dim>
					<dim>160</dim>
				</port>
				<port id="1" precision="FP32">
					<dim>1</dim>
					<dim>16</dim>
					<dim>1</dim>
					<dim>1</dim>
				</port>
			</input>
			<output>
				<port id="2" precision="FP32" names="/model.2/cv1/conv/Conv_output_0">
					<dim>1</dim>
					<dim>16</dim>
					<dim>160</dim>
					<dim>160</dim>
				</port>
			</output>
		</layer>
		<layer id="21" name="/model.2/cv1/act/Mul" type="Swish" version="opset4">
			<input>
				<port id="0" precision="FP32">
					<dim>1</dim>
					<dim>16</dim>
					<dim>160</dim>
					<dim>160</dim>
				</port>
			</input>
			<output>
				<port id="1" precision="FP32" names="/model.2/cv1/act/Mul_output_0">
					<dim>1</dim>
					<dim>16</dim>
					<dim>160</dim>
					<dim>160</dim>
				</port>
			</output>
		</layer>
		<layer id="22" name="model.2.m.0.cv1.conv.weight_compressed" type="Const" version="opset1">
			<data element_type="f16" shape="16, 16, 1, 1" offset="13824" size="512" />
			<output>
				<port id="0" precision="FP16">
					<dim>16</dim>
					<dim>16</dim>
					<dim>1</dim>
					<dim>1</dim>
				</port>
			</output>
		</layer>
		<layer id="23" name="model.2.m.0.cv1.conv.weight" type="Convert" version="opset1">
			<data destination_type="f32" />
			<rt_info>
				<attribute name="decompression" version="0" />
			</rt_info>
			<input>
				<port id="0" precision="FP16">
					<dim>16</dim>
					<dim>16</dim>
					<dim>1</dim>
					<dim>1</dim>
				</port>
			</input>
			<output>
				<port id="1" precision="FP32" names="model.2.m.0.cv1.conv.weight">
					<dim>16</dim>
					<dim>16</dim>
					<dim>1</dim>
					<dim>1</dim>
				</port>
			</output>
		</layer>
		<layer id="24" name="/model.2/m/m.0/cv1/conv/Conv/WithoutBiases" type="Convolution" version="opset1">
			<data strides="1, 1" dilations="1, 1" pads_begin="0, 0" pads_end="0, 0" auto_pad="explicit" />
			<input>
				<port id="0" precision="FP32">
					<dim>1</dim>
					<dim>16</dim>
					<dim>160</dim>
					<dim>160</dim>
				</port>
				<port id="1" precision="FP32">
					<dim>16</dim>
					<dim>16</dim>
					<dim>1</dim>
					<dim>1</dim>
				</port>
			</input>
			<output>
				<port id="2" precision="FP32">
					<dim>1</dim>
					<dim>16</dim>
					<dim>160</dim>
					<dim>160</dim>
				</port>
			</output>
		</layer>
		<layer id="25" name="Reshape_202_compressed" type="Const" version="opset1">
			<data element_type="f16" shape="1, 16, 1, 1" offset="14336" size="32" />
			<output>
				<port id="0" precision="FP16">
					<dim>1</dim>
					<dim>16</dim>
					<dim>1</dim>
					<dim>1</dim>
				</port>
			</output>
		</layer>
		<layer id="26" name="Reshape_202" type="Convert" version="opset1">
			<data destination_type="f32" />
			<rt_info>
				<attribute name="decompression" version="0" />
			</rt_info>
			<input>
				<port id="0" precision="FP16">
					<dim>1</dim>
					<dim>16</dim>
					<dim>1</dim>
					<dim>1</dim>
				</port>
			</input>
			<output>
				<port id="1" precision="FP32">
					<dim>1</dim>
					<dim>16</dim>
					<dim>1</dim>
					<dim>1</dim>
				</port>
			</output>
		</layer>
		<layer id="27" name="/model.2/m/m.0/cv1/conv/Conv" type="Add" version="opset1">
			<data auto_broadcast="numpy" />
			<input>
				<port id="0" precision="FP32">
					<dim>1</dim>
					<dim>16</dim>
					<dim>160</dim>
					<dim>160</dim>
				</port>
				<port id="1" precision="FP32">
					<dim>1</dim>
					<dim>16</dim>
					<dim>1</dim>
					<dim>1</dim>
				</port>
			</input>
			<output>
				<port id="2" precision="FP32" names="/model.2/m/m.0/cv1/conv/Conv_output_0">
					<dim>1</dim>
					<dim>16</dim>
					<dim>160</dim>
					<dim>160</dim>
				</port>
			</output>
		</layer>
		<layer id="28" name="/model.2/m/m.0/cv1/act/Mul" type="Swish" version="opset4">
			<input>
				<port id="0" precision="FP32">
					<dim>1</dim>
					<dim>16</dim>
					<dim>160</dim>
					<dim>160</dim>
				</port>
			</input>
			<output>
				<port id="1" precision="FP32" names="/model.2/m/m.0/cv1/act/Mul_output_0">
					<dim>1</dim>
					<dim>16</dim>
					<dim>160</dim>
					<dim>160</dim>
				</port>
			</output>
		</layer>
		<layer id="29" name="model.2.m.0.cv2.conv.weight_compressed" type="Const" version="opset1">
			<data element_type="f16" shape="16, 16, 3, 3" offset="14368" size="4608" />
			<output>
				<port id="0" precision="FP16">
					<dim>16</dim>
					<dim>16</dim>
					<dim>3</dim>
					<dim>3</dim>
				</port>
			</output>
		</layer>
		<layer id="30" name="model.2.m.0.cv2.conv.weight" type="Convert" version="opset1">
			<data destination_type="f32" />
			<rt_info>
				<attribute name="decompression" version="0" />
			</rt_info>
			<input>
				<port id="0" precision="FP16">
					<dim>16</dim>
					<dim>16</dim>
					<dim>3</dim>
					<dim>3</dim>
				</port>
			</input>
			<output>
				<port id="1" precision="FP32" names="model.2.m.0.cv2.conv.weight">
					<dim>16</dim>
					<dim>16</dim>
					<dim>3</dim>
					<dim>3</dim>
				</port>
			</output>
		</layer>
		<layer id="31" name="/model.2/m/m.0/cv2/conv/Conv/WithoutBiases" type="Convolution" version="opset1">
			<data strides="1, 1" dilations="1, 1" pads_begin="1, 1" pads_end="1, 1" auto_pad="explicit" />
			<input>
				<port id="0" precision="FP32">
					<dim>1</dim>
					<dim>16</dim>
					<dim>160</dim>
					<dim>160</dim>
				</port>
				<port id="1" precision="FP32">
					<dim>16</dim>
					<dim>16</dim>
					<dim>3</dim>
					<dim>3</dim>
				</port>
			</input>
			<output>
				<port id="2" precision="FP32">
					<dim>1</dim>
					<dim>16</dim>
					<dim>160</dim>
					<dim>160</dim>
				</port>
			</output>
		</layer>
		<layer id="32" name="Reshape_219_compressed" type="Const" version="opset1">
			<data element_type="f16" shape="1, 16, 1, 1" offset="18976" size="32" />
			<output>
				<port id="0" precision="FP16">
					<dim>1</dim>
					<dim>16</dim>
					<dim>1</dim>
					<dim>1</dim>
				</port>
			</output>
		</layer>
		<layer id="33" name="Reshape_219" type="Convert" version="opset1">
			<data destination_type="f32" />
			<rt_info>
				<attribute name="decompression" version="0" />
			</rt_info>
			<input>
				<port id="0" precision="FP16">
					<dim>1</dim>
					<dim>16</dim>
					<dim>1</dim>
					<dim>1</dim>
				</port>
			</input>
			<output>
				<port id="1" precision="FP32">
					<dim>1</dim>
					<dim>16</dim>
					<dim>1</dim>
					<dim>1</dim>
				</port>
			</output>
		</layer>
		<layer id="34" name="/model.2/m/m.0/cv2/conv/Conv" type="Add" version="opset1">
			<data auto_broadcast="numpy" />
			<input>
				<port id="0" precision="FP32">
					<dim>1</dim>
					<dim>16</dim>
					<dim>160</dim>
					<dim>160</dim>
				</port>
				<port id="1" precision="FP32">
					<dim>1</dim>
					<dim>16</dim>
					<dim>1</dim>
					<dim>1</dim>
				</port>
			</input>
			<output>
				<port id="2" precision="FP32" names="/model.2/m/m.0/cv2/conv/Conv_output_0">
					<dim>1</dim>
					<dim>16</dim>
					<dim>160</dim>
					<dim>160</dim>
				</port>
			</output>
		</layer>
		<layer id="35" name="/model.2/m/m.0/cv2/act/Mul" type="Swish" version="opset4">
			<input>
				<port id="0" precision="FP32">
					<dim>1</dim>
					<dim>16</dim>
					<dim>160</dim>
					<dim>160</dim>
				</port>
			</input>
			<output>
				<port id="1" precision="FP32" names="/model.2/m/m.0/cv2/act/Mul_output_0">
					<dim>1</dim>
					<dim>16</dim>
					<dim>160</dim>
					<dim>160</dim>
				</port>
			</output>
		</layer>
		<layer id="36" name="/model.2/m/m.0/Add" type="Add" version="opset1">
			<data auto_broadcast="numpy" />
			<input>
				<port id="0" precision="FP32">
					<dim>1</dim>
					<dim>16</dim>
					<dim>160</dim>
					<dim>160</dim>
				</port>
				<port id="1" precision="FP32">
					<dim>1</dim>
					<dim>16</dim>
					<dim>160</dim>
					<dim>160</dim>
				</port>
			</input>
			<output>
				<port id="2" precision="FP32" names="/model.2/m/m.0/Add_output_0">
					<dim>1</dim>
					<dim>16</dim>
					<dim>160</dim>
					<dim>160</dim>
				</port>
			</output>
		</layer>
		<layer id="37" name="model.2.cv2.conv.weight_compressed" type="Const" version="opset1">
			<data element_type="f16" shape="16, 32, 1, 1" offset="19008" size="1024" />
			<output>
				<port id="0" precision="FP16">
					<dim>16</dim>
					<dim>32</dim>
					<dim>1</dim>
					<dim>1</dim>
				</port>
			</output>
		</layer>
		<layer id="38" name="model.2.cv2.conv.weight" type="Convert" version="opset1">
			<data destination_type="f32" />
			<rt_info>
				<attribute name="decompression" version="0" />
			</rt_info>
			<input>
				<port id="0" precision="FP16">
					<dim>16</dim>
					<dim>32</dim>
					<dim>1</dim>
					<dim>1</dim>
				</port>
			</input>
			<output>
				<port id="1" precision="FP32" names="model.2.cv2.conv.weight">
					<dim>16</dim>
					<dim>32</dim>
					<dim>1</dim>
					<dim>1</dim>
				</port>
			</output>
		</layer>
		<layer id="39" name="/model.2/cv2/conv/Conv/WithoutBiases" type="Convolution" version="opset1">
			<data strides="1, 1" dilations="1, 1" pads_begin="0, 0" pads_end="0, 0" auto_pad="explicit" />
			<input>
				<port id="0" precision="FP32">
					<dim>1</dim>
					<dim>32</dim>
					<dim>160</dim>
					<dim>160</dim>
				</port>
				<port id="1" precision="FP32">
					<dim>16</dim>
					<dim>32</dim>
					<dim>1</dim>
					<dim>1</dim>
				</port>
			</input>
			<output>
				<port id="2" precision="FP32">
					<dim>1</dim>
					<dim>16</dim>
					<dim>160</dim>
					<dim>160</dim>
				</port>
			</output>
		</layer>
		<layer id="40" name="Reshape_237_compressed" type="Const" version="opset1">
			<data element_type="f16" shape="1, 16, 1, 1" offset="20032" size="32" />
			<output>
				<port id="0" precision="FP16">
					<dim>1</dim>
					<dim>16</dim>
					<dim>1</dim>
					<dim>1</dim>
				</port>
			</output>
		</layer>
		<layer id="41" name="Reshape_237" type="Convert" version="opset1">
			<data destination_type="f32" />
			<rt_info>
				<attribute name="decompression" version="0" />
			</rt_info>
			<input>
				<port id="0" precision="FP16">
					<dim>1</dim>
					<dim>16</dim>
					<dim>1</dim>
					<dim>1</dim>
				</port>
			</input>
			<output>
				<port id="1" precision="FP32">
					<dim>1</dim>
					<dim>16</dim>
					<dim>1</dim>
					<dim>1</dim>
				</port>
			</output>
		</layer>
		<layer id="42" name="/model.2/cv2/conv/Conv" type="Add" version="opset1">
			<data auto_broadcast="numpy" />
			<input>
				<port id="0" precision="FP32">
					<dim>1</dim>
					<dim>16</dim>
					<dim>160</dim>
					<dim>160</dim>
				</port>
				<port id="1" precision="FP32">
					<dim>1</dim>
					<dim>16</dim>
					<dim>1</dim>
					<dim>1</dim>
				</port>
			</input>
			<output>
				<port id="2" precision="FP32" names="/model.2/cv2/conv/Conv_output_0">
					<dim>1</dim>
					<dim>16</dim>
					<dim>160</dim>
					<dim>160</dim>
				</port>
			</output>
		</layer>
		<layer id="43" name="/model.2/cv2/act/Mul" type="Swish" version="opset4">
			<input>
				<port id="0" precision="FP32">
					<dim>1</dim>
					<dim>16</dim>
					<dim>160</dim>
					<dim>160</dim>
				</port>
			</input>
			<output>
				<port id="1" precision="FP32" names="/model.2/cv2/act/Mul_output_0">
					<dim>1</dim>
					<dim>16</dim>
					<dim>160</dim>
					<dim>160</dim>
				</port>
			</output>
		</layer>
		<layer id="44" name="/model.2/Concat" type="Concat" version="opset1">
			<data axis="1" />
			<input>
				<port id="0" precision="FP32">
					<dim>1</dim>
					<dim>16</dim>
					<dim>160</dim>
					<dim>160</dim>
				</port>
				<port id="1" precision="FP32">
					<dim>1</dim>
					<dim>16</dim>
					<dim>160</dim>
					<dim>160</dim>
				</port>
			</input>
			<output>
				<port id="2" precision="FP32" names="/model.2/Concat_output_0">
					<dim>1</dim>
					<dim>32</dim>
					<dim>160</dim>
					<dim>160</dim>
				</port>
			</output>
		</layer>
		<layer id="45" name="model.2.cv3.conv.weight_compressed" type="Const" version="opset1">
			<data element_type="f16" shape="32, 32, 1, 1" offset="20064" size="2048" />
			<output>
				<port id="0" precision="FP16">
					<dim>32</dim>
					<dim>32</dim>
					<dim>1</dim>
					<dim>1</dim>
				</port>
			</output>
		</layer>
		<layer id="46" name="model.2.cv3.conv.weight" type="Convert" version="opset1">
			<data destination_type="f32" />
			<rt_info>
				<attribute name="decompression" version="0" />
			</rt_info>
			<input>
				<port id="0" precision="FP16">
					<dim>32</dim>
					<dim>32</dim>
					<dim>1</dim>
					<dim>1</dim>
				</port>
			</input>
			<output>
				<port id="1" precision="FP32" names="model.2.cv3.conv.weight">
					<dim>32</dim>
					<dim>32</dim>
					<dim>1</dim>
					<dim>1</dim>
				</port>
			</output>
		</layer>
		<layer id="47" name="/model.2/cv3/conv/Conv/WithoutBiases" type="Convolution" version="opset1">
			<data strides="1, 1" dilations="1, 1" pads_begin="0, 0" pads_end="0, 0" auto_pad="explicit" />
			<input>
				<port id="0" precision="FP32">
					<dim>1</dim>
					<dim>32</dim>
					<dim>160</dim>
					<dim>160</dim>
				</port>
				<port id="1" precision="FP32">
					<dim>32</dim>
					<dim>32</dim>
					<dim>1</dim>
					<dim>1</dim>
				</port>
			</input>
			<output>
				<port id="2" precision="FP32">
					<dim>1</dim>
					<dim>32</dim>
					<dim>160</dim>
					<dim>160</dim>
				</port>
			</output>
		</layer>
		<layer id="48" name="Reshape_255_compressed" type="Const" version="opset1">
			<data element_type="f16" shape="1, 32, 1, 1" offset="22112" size="64" />
			<output>
				<port id="0" precision="FP16">
					<dim>1</dim>
					<dim>32</dim>
					<dim>1</dim>
					<dim>1</dim>
				</port>
			</output>
		</layer>
		<layer id="49" name="Reshape_255" type="Convert" version="opset1">
			<data destination_type="f32" />
			<rt_info>
				<attribute name="decompression" version="0" />
			</rt_info>
			<input>
				<port id="0" precision="FP16">
					<dim>1</dim>
					<dim>32</dim>
					<dim>1</dim>
					<dim>1</dim>
				</port>
			</input>
			<output>
				<port id="1" precision="FP32">
					<dim>1</dim>
					<dim>32</dim>
					<dim>1</dim>
					<dim>1</dim>
				</port>
			</output>
		</layer>
		<layer id="50" name="/model.2/cv3/conv/Conv" type="Add" version="opset1">
			<data auto_broadcast="numpy" />
			<input>
				<port id="0" precision="FP32">
					<dim>1</dim>
					<dim>32</dim>
					<dim>160</dim>
					<dim>160</dim>
				</port>
				<port id="1" precision="FP32">
					<dim>1</dim>
					<dim>32</dim>
					<dim>1</dim>
					<dim>1</dim>
				</port>
			</input>
			<output>
				<port id="2" precision="FP32" names="/model.2/cv3/conv/Conv_output_0">
					<dim>1</dim>
					<dim>32</dim>
					<dim>160</dim>
					<dim>160</dim>
				</port>
			</output>
		</layer>
		<layer id="51" name="/model.2/cv3/act/Mul" type="Swish" version="opset4">
			<input>
				<port id="0" precision="FP32">
					<dim>1</dim>
					<dim>32</dim>
					<dim>160</dim>
					<dim>160</dim>
				</port>
			</input>
			<output>
				<port id="1" precision="FP32" names="/model.2/cv3/act/Mul_output_0">
					<dim>1</dim>
					<dim>32</dim>
					<dim>160</dim>
					<dim>160</dim>
				</port>
			</output>
		</layer>
		<layer id="52" name="model.3.conv.weight_compressed" type="Const" version="opset1">
			<data element_type="f16" shape="64, 32, 3, 3" offset="22176" size="36864" />
			<output>
				<port id="0" precision="FP16">
					<dim>64</dim>
					<dim>32</dim>
					<dim>3</dim>
					<dim>3</dim>
				</port>
			</output>
		</layer>
		<layer id="53" name="model.3.conv.weight" type="Convert" version="opset1">
			<data destination_type="f32" />
			<rt_info>
				<attribute name="decompression" version="0" />
			</rt_info>
			<input>
				<port id="0" precision="FP16">
					<dim>64</dim>
					<dim>32</dim>
					<dim>3</dim>
					<dim>3</dim>
				</port>
			</input>
			<output>
				<port id="1" precision="FP32" names="model.3.conv.weight">
					<dim>64</dim>
					<dim>32</dim>
					<dim>3</dim>
					<dim>3</dim>
				</port>
			</output>
		</layer>
		<layer id="54" name="/model.3/conv/Conv/WithoutBiases" type="Convolution" version="opset1">
			<data strides="2, 2" dilations="1, 1" pads_begin="1, 1" pads_end="1, 1" auto_pad="explicit" />
			<input>
				<port id="0" precision="FP32">
					<dim>1</dim>
					<dim>32</dim>
					<dim>160</dim>
					<dim>160</dim>
				</port>
				<port id="1" precision="FP32">
					<dim>64</dim>
					<dim>32</dim>
					<dim>3</dim>
					<dim>3</dim>
				</port>
			</input>
			<output>
				<port id="2" precision="FP32">
					<dim>1</dim>
					<dim>64</dim>
					<dim>80</dim>
					<dim>80</dim>
				</port>
			</output>
		</layer>
		<layer id="55" name="Reshape_272_compressed" type="Const" version="opset1">
			<data element_type="f16" shape="1, 64, 1, 1" offset="59040" size="128" />
			<output>
				<port id="0" precision="FP16">
					<dim>1</dim>
					<dim>64</dim>
					<dim>1</dim>
					<dim>1</dim>
				</port>
			</output>
		</layer>
		<layer id="56" name="Reshape_272" type="Convert" version="opset1">
			<data destination_type="f32" />
			<rt_info>
				<attribute name="decompression" version="0" />
			</rt_info>
			<input>
				<port id="0" precision="FP16">
					<dim>1</dim>
					<dim>64</dim>
					<dim>1</dim>
					<dim>1</dim>
				</port>
			</input>
			<output>
				<port id="1" precision="FP32">
					<dim>1</dim>
					<dim>64</dim>
					<dim>1</dim>
					<dim>1</dim>
				</port>
			</output>
		</layer>
		<layer id="57" name="/model.3/conv/Conv" type="Add" version="opset1">
			<data auto_broadcast="numpy" />
			<input>
				<port id="0" precision="FP32">
					<dim>1</dim>
					<dim>64</dim>
					<dim>80</dim>
					<dim>80</dim>
				</port>
				<port id="1" precision="FP32">
					<dim>1</dim>
					<dim>64</dim>
					<dim>1</dim>
					<dim>1</dim>
				</port>
			</input>
			<output>
				<port id="2" precision="FP32" names="/model.3/conv/Conv_output_0">
					<dim>1</dim>
					<dim>64</dim>
					<dim>80</dim>
					<dim>80</dim>
				</port>
			</output>
		</layer>
		<layer id="58" name="/model.3/act/Mul" type="Swish" version="opset4">
			<input>
				<port id="0" precision="FP32">
					<dim>1</dim>
					<dim>64</dim>
					<dim>80</dim>
					<dim>80</dim>
				</port>
			</input>
			<output>
				<port id="1" precision="FP32" names="/model.3/act/Mul_output_0">
					<dim>1</dim>
					<dim>64</dim>
					<dim>80</dim>
					<dim>80</dim>
				</port>
			</output>
		</layer>
		<layer id="59" name="model.4.cv1.conv.weight_compressed" type="Const" version="opset1">
			<data element_type="f16" shape="32, 64, 1, 1" offset="59168" size="4096" />
			<output>
				<port id="0" precision="FP16">
					<dim>32</dim>
					<dim>64</dim>
					<dim>1</dim>
					<dim>1</dim>
				</port>
			</output>
		</layer>
		<layer id="60" name="model.4.cv1.conv.weight" type="Convert" version="opset1">
			<data destination_type="f32" />
			<rt_info>
				<attribute name="decompression" version="0" />
			</rt_info>
			<input>
				<port id="0" precision="FP16">
					<dim>32</dim>
					<dim>64</dim>
					<dim>1</dim>
					<dim>1</dim>
				</port>
			</input>
			<output>
				<port id="1" precision="FP32" names="model.4.cv1.conv.weight">
					<dim>32</dim>
					<dim>64</dim>
					<dim>1</dim>
					<dim>1</dim>
				</port>
			</output>
		</layer>
		<layer id="61" name="/model.4/cv1/conv/Conv/WithoutBiases" type="Convolution" version="opset1">
			<data strides="1, 1" dilations="1, 1" pads_begin="0, 0" pads_end="0, 0" auto_pad="explicit" />
			<input>
				<port id="0" precision="FP32">
					<dim>1</dim>
					<dim>64</dim>
					<dim>80</dim>
					<dim>80</dim>
				</port>
				<port id="1" precision="FP32">
					<dim>32</dim>
					<dim>64</dim>
					<dim>1</dim>
					<dim>1</dim>
				</port>
			</input>
			<output>
				<port id="2" precision="FP32">
					<dim>1</dim>
					<dim>32</dim>
					<dim>80</dim>
					<dim>80</dim>
				</port>
			</output>
		</layer>
		<layer id="62" name="Reshape_289_compressed" type="Const" version="opset1">
			<data element_type="f16" shape="1, 32, 1, 1" offset="63264" size="64" />
			<output>
				<port id="0" precision="FP16">
					<dim>1</dim>
					<dim>32</dim>
					<dim>1</dim>
					<dim>1</dim>
				</port>
			</output>
		</layer>
		<layer id="63" name="Reshape_289" type="Convert" version="opset1">
			<data destination_type="f32" />
			<rt_info>
				<attribute name="decompression" version="0" />
			</rt_info>
			<input>
				<port id="0" precision="FP16">
					<dim>1</dim>
					<dim>32</dim>
					<dim>1</dim>
					<dim>1</dim>
				</port>
			</input>
			<output>
				<port id="1" precision="FP32">
					<dim>1</dim>
					<dim>32</dim>
					<dim>1</dim>
					<dim>1</dim>
				</port>
			</output>
		</layer>
		<layer id="64" name="/model.4/cv1/conv/Conv" type="Add" version="opset1">
			<data auto_broadcast="numpy" />
			<input>
				<port id="0" precision="FP32">
					<dim>1</dim>
					<dim>32</dim>
					<dim>80</dim>
					<dim>80</dim>
				</port>
				<port id="1" precision="FP32">
					<dim>1</dim>
					<dim>32</dim>
					<dim>1</dim>
					<dim>1</dim>
				</port>
			</input>
			<output>
				<port id="2" precision="FP32" names="/model.4/cv1/conv/Conv_output_0">
					<dim>1</dim>
					<dim>32</dim>
					<dim>80</dim>
					<dim>80</dim>
				</port>
			</output>
		</layer>
		<layer id="65" name="/model.4/cv1/act/Mul" type="Swish" version="opset4">
			<input>
				<port id="0" precision="FP32">
					<dim>1</dim>
					<dim>32</dim>
					<dim>80</dim>
					<dim>80</dim>
				</port>
			</input>
			<output>
				<port id="1" precision="FP32" names="/model.4/cv1/act/Mul_output_0">
					<dim>1</dim>
					<dim>32</dim>
					<dim>80</dim>
					<dim>80</dim>
				</port>
			</output>
		</layer>
		<layer id="66" name="model.4.m.0.cv1.conv.weight_compressed" type="Const" version="opset1">
			<data element_type="f16" shape="32, 32, 1, 1" offset="63328" size="2048" />
			<output>
				<port id="0" precision="FP16">
					<dim>32</dim>
					<dim>32</dim>
					<dim>1</dim>
					<dim>1</dim>
				</port>
			</output>
		</layer>
		<layer id="67" name="model.4.m.0.cv1.conv.weight" type="Convert" version="opset1">
			<data destination_type="f32" />
			<rt_info>
				<attribute name="decompression" version="0" />
			</rt_info>
			<input>
				<port id="0" precision="FP16">
					<dim>32</dim>
					<dim>32</dim>
					<dim>1</dim>
					<dim>1</dim>
				</port>
			</input>
			<output>
				<port id="1" precision="FP32" names="model.4.m.0.cv1.conv.weight">
					<dim>32</dim>
					<dim>32</dim>
					<dim>1</dim>
					<dim>1</dim>
				</port>
			</output>
		</layer>
		<layer id="68" name="/model.4/m/m.0/cv1/conv/Conv/WithoutBiases" type="Convolution" version="opset1">
			<data strides="1, 1" dilations="1, 1" pads_begin="0, 0" pads_end="0, 0" auto_pad="explicit" />
			<input>
				<port id="0" precision="FP32">
					<dim>1</dim>
					<dim>32</dim>
					<dim>80</dim>
					<dim>80</dim>
				</port>
				<port id="1" precision="FP32">
					<dim>32</dim>
					<dim>32</dim>
					<dim>1</dim>
					<dim>1</dim>
				</port>
			</input>
			<output>
				<port id="2" precision="FP32">
					<dim>1</dim>
					<dim>32</dim>
					<dim>80</dim>
					<dim>80</dim>
				</port>
			</output>
		</layer>
		<layer id="69" name="Reshape_306_compressed" type="Const" version="opset1">
			<data element_type="f16" shape="1, 32, 1, 1" offset="65376" size="64" />
			<output>
				<port id="0" precision="FP16">
					<dim>1</dim>
					<dim>32</dim>
					<dim>1</dim>
					<dim>1</dim>
				</port>
			</output>
		</layer>
		<layer id="70" name="Reshape_306" type="Convert" version="opset1">
			<data destination_type="f32" />
			<rt_info>
				<attribute name="decompression" version="0" />
			</rt_info>
			<input>
				<port id="0" precision="FP16">
					<dim>1</dim>
					<dim>32</dim>
					<dim>1</dim>
					<dim>1</dim>
				</port>
			</input>
			<output>
				<port id="1" precision="FP32">
					<dim>1</dim>
					<dim>32</dim>
					<dim>1</dim>
					<dim>1</dim>
				</port>
			</output>
		</layer>
		<layer id="71" name="/model.4/m/m.0/cv1/conv/Conv" type="Add" version="opset1">
			<data auto_broadcast="numpy" />
			<input>
				<port id="0" precision="FP32">
					<dim>1</dim>
					<dim>32</dim>
					<dim>80</dim>
					<dim>80</dim>
				</port>
				<port id="1" precision="FP32">
					<dim>1</dim>
					<dim>32</dim>
					<dim>1</dim>
					<dim>1</dim>
				</port>
			</input>
			<output>
				<port id="2" precision="FP32" names="/model.4/m/m.0/cv1/conv/Conv_output_0">
					<dim>1</dim>
					<dim>32</dim>
					<dim>80</dim>
					<dim>80</dim>
				</port>
			</output>
		</layer>
		<layer id="72" name="/model.4/m/m.0/cv1/act/Mul" type="Swish" version="opset4">
			<input>
				<port id="0" precision="FP32">
					<dim>1</dim>
					<dim>32</dim>
					<dim>80</dim>
					<dim>80</dim>
				</port>
			</input>
			<output>
				<port id="1" precision="FP32" names="/model.4/m/m.0/cv1/act/Mul_output_0">
					<dim>1</dim>
					<dim>32</dim>
					<dim>80</dim>
					<dim>80</dim>
				</port>
			</output>
		</layer>
		<layer id="73" name="model.4.m.0.cv2.conv.weight_compressed" type="Const" version="opset1">
			<data element_type="f16" shape="32, 32, 3, 3" offset="65440" size="18432" />
			<output>
				<port id="0" precision="FP16">
					<dim>32</dim>
					<dim>32</dim>
					<dim>3</dim>
					<dim>3</dim>
				</port>
			</output>
		</layer>
		<layer id="74" name="model.4.m.0.cv2.conv.weight" type="Convert" version="opset1">
			<data destination_type="f32" />
			<rt_info>
				<attribute name="decompression" version="0" />
			</rt_info>
			<input>
				<port id="0" precision="FP16">
					<dim>32</dim>
					<dim>32</dim>
					<dim>3</dim>
					<dim>3</dim>
				</port>
			</input>
			<output>
				<port id="1" precision="FP32" names="model.4.m.0.cv2.conv.weight">
					<dim>32</dim>
					<dim>32</dim>
					<dim>3</dim>
					<dim>3</dim>
				</port>
			</output>
		</layer>
		<layer id="75" name="/model.4/m/m.0/cv2/conv/Conv/WithoutBiases" type="Convolution" version="opset1">
			<data strides="1, 1" dilations="1, 1" pads_begin="1, 1" pads_end="1, 1" auto_pad="explicit" />
			<input>
				<port id="0" precision="FP32">
					<dim>1</dim>
					<dim>32</dim>
					<dim>80</dim>
					<dim>80</dim>
				</port>
				<port id="1" precision="FP32">
					<dim>32</dim>
					<dim>32</dim>
					<dim>3</dim>
					<dim>3</dim>
				</port>
			</input>
			<output>
				<port id="2" precision="FP32">
					<dim>1</dim>
					<dim>32</dim>
					<dim>80</dim>
					<dim>80</dim>
				</port>
			</output>
		</layer>
		<layer id="76" name="Reshape_323_compressed" type="Const" version="opset1">
			<data element_type="f16" shape="1, 32, 1, 1" offset="83872" size="64" />
			<output>
				<port id="0" precision="FP16">
					<dim>1</dim>
					<dim>32</dim>
					<dim>1</dim>
					<dim>1</dim>
				</port>
			</output>
		</layer>
		<layer id="77" name="Reshape_323" type="Convert" version="opset1">
			<data destination_type="f32" />
			<rt_info>
				<attribute name="decompression" version="0" />
			</rt_info>
			<input>
				<port id="0" precision="FP16">
					<dim>1</dim>
					<dim>32</dim>
					<dim>1</dim>
					<dim>1</dim>
				</port>
			</input>
			<output>
				<port id="1" precision="FP32">
					<dim>1</dim>
					<dim>32</dim>
					<dim>1</dim>
					<dim>1</dim>
				</port>
			</output>
		</layer>
		<layer id="78" name="/model.4/m/m.0/cv2/conv/Conv" type="Add" version="opset1">
			<data auto_broadcast="numpy" />
			<input>
				<port id="0" precision="FP32">
					<dim>1</dim>
					<dim>32</dim>
					<dim>80</dim>
					<dim>80</dim>
				</port>
				<port id="1" precision="FP32">
					<dim>1</dim>
					<dim>32</dim>
					<dim>1</dim>
					<dim>1</dim>
				</port>
			</input>
			<output>
				<port id="2" precision="FP32" names="/model.4/m/m.0/cv2/conv/Conv_output_0">
					<dim>1</dim>
					<dim>32</dim>
					<dim>80</dim>
					<dim>80</dim>
				</port>
			</output>
		</layer>
		<layer id="79" name="/model.4/m/m.0/cv2/act/Mul" type="Swish" version="opset4">
			<input>
				<port id="0" precision="FP32">
					<dim>1</dim>
					<dim>32</dim>
					<dim>80</dim>
					<dim>80</dim>
				</port>
			</input>
			<output>
				<port id="1" precision="FP32" names="/model.4/m/m.0/cv2/act/Mul_output_0">
					<dim>1</dim>
					<dim>32</dim>
					<dim>80</dim>
					<dim>80</dim>
				</port>
			</output>
		</layer>
		<layer id="80" name="/model.4/m/m.0/Add" type="Add" version="opset1">
			<data auto_broadcast="numpy" />
			<input>
				<port id="0" precision="FP32">
					<dim>1</dim>
					<dim>32</dim>
					<dim>80</dim>
					<dim>80</dim>
				</port>
				<port id="1" precision="FP32">
					<dim>1</dim>
					<dim>32</dim>
					<dim>80</dim>
					<dim>80</dim>
				</port>
			</input>
			<output>
				<port id="2" precision="FP32" names="/model.4/m/m.0/Add_output_0">
					<dim>1</dim>
					<dim>32</dim>
					<dim>80</dim>
					<dim>80</dim>
				</port>
			</output>
		</layer>
		<layer id="81" name="model.4.m.1.cv1.conv.weight_compressed" type="Const" version="opset1">
			<data element_type="f16" shape="32, 32, 1, 1" offset="83936" size="2048" />
			<output>
				<port id="0" precision="FP16">
					<dim>32</dim>
					<dim>32</dim>
					<dim>1</dim>
					<dim>1</dim>
				</port>
			</output>
		</layer>
		<layer id="82" name="model.4.m.1.cv1.conv.weight" type="Convert" version="opset1">
			<data destination_type="f32" />
			<rt_info>
				<attribute name="decompression" version="0" />
			</rt_info>
			<input>
				<port id="0" precision="FP16">
					<dim>32</dim>
					<dim>32</dim>
					<dim>1</dim>
					<dim>1</dim>
				</port>
			</input>
			<output>
				<port id="1" precision="FP32" names="model.4.m.1.cv1.conv.weight">
					<dim>32</dim>
					<dim>32</dim>
					<dim>1</dim>
					<dim>1</dim>
				</port>
			</output>
		</layer>
		<layer id="83" name="/model.4/m/m.1/cv1/conv/Conv/WithoutBiases" type="Convolution" version="opset1">
			<data strides="1, 1" dilations="1, 1" pads_begin="0, 0" pads_end="0, 0" auto_pad="explicit" />
			<input>
				<port id="0" precision="FP32">
					<dim>1</dim>
					<dim>32</dim>
					<dim>80</dim>
					<dim>80</dim>
				</port>
				<port id="1" precision="FP32">
					<dim>32</dim>
					<dim>32</dim>
					<dim>1</dim>
					<dim>1</dim>
				</port>
			</input>
			<output>
				<port id="2" precision="FP32">
					<dim>1</dim>
					<dim>32</dim>
					<dim>80</dim>
					<dim>80</dim>
				</port>
			</output>
		</layer>
		<layer id="84" name="Reshape_341_compressed" type="Const" version="opset1">
			<data element_type="f16" shape="1, 32, 1, 1" offset="85984" size="64" />
			<output>
				<port id="0" precision="FP16">
					<dim>1</dim>
					<dim>32</dim>
					<dim>1</dim>
					<dim>1</dim>
				</port>
			</output>
		</layer>
		<layer id="85" name="Reshape_341" type="Convert" version="opset1">
			<data destination_type="f32" />
			<rt_info>
				<attribute name="decompression" version="0" />
			</rt_info>
			<input>
				<port id="0" precision="FP16">
					<dim>1</dim>
					<dim>32</dim>
					<dim>1</dim>
					<dim>1</dim>
				</port>
			</input>
			<output>
				<port id="1" precision="FP32">
					<dim>1</dim>
					<dim>32</dim>
					<dim>1</dim>
					<dim>1</dim>
				</port>
			</output>
		</layer>
		<layer id="86" name="/model.4/m/m.1/cv1/conv/Conv" type="Add" version="opset1">
			<data auto_broadcast="numpy" />
			<input>
				<port id="0" precision="FP32">
					<dim>1</dim>
					<dim>32</dim>
					<dim>80</dim>
					<dim>80</dim>
				</port>
				<port id="1" precision="FP32">
					<dim>1</dim>
					<dim>32</dim>
					<dim>1</dim>
					<dim>1</dim>
				</port>
			</input>
			<output>
				<port id="2" precision="FP32" names="/model.4/m/m.1/cv1/conv/Conv_output_0">
					<dim>1</dim>
					<dim>32</dim>
					<dim>80</dim>
					<dim>80</dim>
				</port>
			</output>
		</layer>
		<layer id="87" name="/model.4/m/m.1/cv1/act/Mul" type="Swish" version="opset4">
			<input>
				<port id="0" precision="FP32">
					<dim>1</dim>
					<dim>32</dim>
					<dim>80</dim>
					<dim>80</dim>
				</port>
			</input>
			<output>
				<port id="1" precision="FP32" names="/model.4/m/m.1/cv1/act/Mul_output_0">
					<dim>1</dim>
					<dim>32</dim>
					<dim>80</dim>
					<dim>80</dim>
				</port>
			</output>
		</layer>
		<layer id="88" name="model.4.m.1.cv2.conv.weight_compressed" type="Const" version="opset1">
			<data element_type="f16" shape="32, 32, 3, 3" offset="86048" size="18432" />
			<output>
				<port id="0" precision="FP16">
					<dim>32</dim>
					<dim>32</dim>
					<dim>3</dim>
					<dim>3</dim>
				</port>
			</output>
		</layer>
		<layer id="89" name="model.4.m.1.cv2.conv.weight" type="Convert" version="opset1">
			<data destination_type="f32" />
			<rt_info>
				<attribute name="decompression" version="0" />
			</rt_info>
			<input>
				<port id="0" precision="FP16">
					<dim>32</dim>
					<dim>32</dim>
					<dim>3</dim>
					<dim>3</dim>
				</port>
			</input>
			<output>
				<port id="1" precision="FP32" names="model.4.m.1.cv2.conv.weight">
					<dim>32</dim>
					<dim>32</dim>
					<dim>3</dim>
					<dim>3</dim>
				</port>
			</output>
		</layer>
		<layer id="90" name="/model.4/m/m.1/cv2/conv/Conv/WithoutBiases" type="Convolution" version="opset1">
			<data strides="1, 1" dilations="1, 1" pads_begin="1, 1" pads_end="1, 1" auto_pad="explicit" />
			<input>
				<port id="0" precision="FP32">
					<dim>1</dim>
					<dim>32</dim>
					<dim>80</dim>
					<dim>80</dim>
				</port>
				<port id="1" precision="FP32">
					<dim>32</dim>
					<dim>32</dim>
					<dim>3</dim>
					<dim>3</dim>
				</port>
			</input>
			<output>
				<port id="2" precision="FP32">
					<dim>1</dim>
					<dim>32</dim>
					<dim>80</dim>
					<dim>80</dim>
				</port>
			</output>
		</layer>
		<layer id="91" name="Reshape_358_compressed" type="Const" version="opset1">
			<data element_type="f16" shape="1, 32, 1, 1" offset="104480" size="64" />
			<output>
				<port id="0" precision="FP16">
					<dim>1</dim>
					<dim>32</dim>
					<dim>1</dim>
					<dim>1</dim>
				</port>
			</output>
		</layer>
		<layer id="92" name="Reshape_358" type="Convert" version="opset1">
			<data destination_type="f32" />
			<rt_info>
				<attribute name="decompression" version="0" />
			</rt_info>
			<input>
				<port id="0" precision="FP16">
					<dim>1</dim>
					<dim>32</dim>
					<dim>1</dim>
					<dim>1</dim>
				</port>
			</input>
			<output>
				<port id="1" precision="FP32">
					<dim>1</dim>
					<dim>32</dim>
					<dim>1</dim>
					<dim>1</dim>
				</port>
			</output>
		</layer>
		<layer id="93" name="/model.4/m/m.1/cv2/conv/Conv" type="Add" version="opset1">
			<data auto_broadcast="numpy" />
			<input>
				<port id="0" precision="FP32">
					<dim>1</dim>
					<dim>32</dim>
					<dim>80</dim>
					<dim>80</dim>
				</port>
				<port id="1" precision="FP32">
					<dim>1</dim>
					<dim>32</dim>
					<dim>1</dim>
					<dim>1</dim>
				</port>
			</input>
			<output>
				<port id="2" precision="FP32" names="/model.4/m/m.1/cv2/conv/Conv_output_0">
					<dim>1</dim>
					<dim>32</dim>
					<dim>80</dim>
					<dim>80</dim>
				</port>
			</output>
		</layer>
		<layer id="94" name="/model.4/m/m.1/cv2/act/Mul" type="Swish" version="opset4">
			<input>
				<port id="0" precision="FP32">
					<dim>1</dim>
					<dim>32</dim>
					<dim>80</dim>
					<dim>80</dim>
				</port>
			</input>
			<output>
				<port id="1" precision="FP32" names="/model.4/m/m.1/cv2/act/Mul_output_0">
					<dim>1</dim>
					<dim>32</dim>
					<dim>80</dim>
					<dim>80</dim>
				</port>
			</output>
		</layer>
		<layer id="95" name="/model.4/m/m.1/Add" type="Add" version="opset1">
			<data auto_broadcast="numpy" />
			<input>
				<port id="0" precision="FP32">
					<dim>1</dim>
					<dim>32</dim>
					<dim>80</dim>
					<dim>80</dim>
				</port>
				<port id="1" precision="FP32">
					<dim>1</dim>
					<dim>32</dim>
					<dim>80</dim>
					<dim>80</dim>
				</port>
			</input>
			<output>
				<port id="2" precision="FP32" names="/model.4/m/m.1/Add_output_0">
					<dim>1</dim>
					<dim>32</dim>
					<dim>80</dim>
					<dim>80</dim>
				</port>
			</output>
		</layer>
		<layer id="96" name="model.4.cv2.conv.weight_compressed" type="Const" version="opset1">
			<data element_type="f16" shape="32, 64, 1, 1" offset="104544" size="4096" />
			<output>
				<port id="0" precision="FP16">
					<dim>32</dim>
					<dim>64</dim>
					<dim>1</dim>
					<dim>1</dim>
				</port>
			</output>
		</layer>
		<layer id="97" name="model.4.cv2.conv.weight" type="Convert" version="opset1">
			<data destination_type="f32" />
			<rt_info>
				<attribute name="decompression" version="0" />
			</rt_info>
			<input>
				<port id="0" precision="FP16">
					<dim>32</dim>
					<dim>64</dim>
					<dim>1</dim>
					<dim>1</dim>
				</port>
			</input>
			<output>
				<port id="1" precision="FP32" names="model.4.cv2.conv.weight">
					<dim>32</dim>
					<dim>64</dim>
					<dim>1</dim>
					<dim>1</dim>
				</port>
			</output>
		</layer>
		<layer id="98" name="/model.4/cv2/conv/Conv/WithoutBiases" type="Convolution" version="opset1">
			<data strides="1, 1" dilations="1, 1" pads_begin="0, 0" pads_end="0, 0" auto_pad="explicit" />
			<input>
				<port id="0" precision="FP32">
					<dim>1</dim>
					<dim>64</dim>
					<dim>80</dim>
					<dim>80</dim>
				</port>
				<port id="1" precision="FP32">
					<dim>32</dim>
					<dim>64</dim>
					<dim>1</dim>
					<dim>1</dim>
				</port>
			</input>
			<output>
				<port id="2" precision="FP32">
					<dim>1</dim>
					<dim>32</dim>
					<dim>80</dim>
					<dim>80</dim>
				</port>
			</output>
		</layer>
		<layer id="99" name="Reshape_376_compressed" type="Const" version="opset1">
			<data element_type="f16" shape="1, 32, 1, 1" offset="108640" size="64" />
			<output>
				<port id="0" precision="FP16">
					<dim>1</dim>
					<dim>32</dim>
					<dim>1</dim>
					<dim>1</dim>
				</port>
			</output>
		</layer>
		<layer id="100" name="Reshape_376" type="Convert" version="opset1">
			<data destination_type="f32" />
			<rt_info>
				<attribute name="decompression" version="0" />
			</rt_info>
			<input>
				<port id="0" precision="FP16">
					<dim>1</dim>
					<dim>32</dim>
					<dim>1</dim>
					<dim>1</dim>
				</port>
			</input>
			<output>
				<port id="1" precision="FP32">
					<dim>1</dim>
					<dim>32</dim>
					<dim>1</dim>
					<dim>1</dim>
				</port>
			</output>
		</layer>
		<layer id="101" name="/model.4/cv2/conv/Conv" type="Add" version="opset1">
			<data auto_broadcast="numpy" />
			<input>
				<port id="0" precision="FP32">
					<dim>1</dim>
					<dim>32</dim>
					<dim>80</dim>
					<dim>80</dim>
				</port>
				<port id="1" precision="FP32">
					<dim>1</dim>
					<dim>32</dim>
					<dim>1</dim>
					<dim>1</dim>
				</port>
			</input>
			<output>
				<port id="2" precision="FP32" names="/model.4/cv2/conv/Conv_output_0">
					<dim>1</dim>
					<dim>32</dim>
					<dim>80</dim>
					<dim>80</dim>
				</port>
			</output>
		</layer>
		<layer id="102" name="/model.4/cv2/act/Mul" type="Swish" version="opset4">
			<input>
				<port id="0" precision="FP32">
					<dim>1</dim>
					<dim>32</dim>
					<dim>80</dim>
					<dim>80</dim>
				</port>
			</input>
			<output>
				<port id="1" precision="FP32" names="/model.4/cv2/act/Mul_output_0">
					<dim>1</dim>
					<dim>32</dim>
					<dim>80</dim>
					<dim>80</dim>
				</port>
			</output>
		</layer>
		<layer id="103" name="/model.4/Concat" type="Concat" version="opset1">
			<data axis="1" />
			<input>
				<port id="0" precision="FP32">
					<dim>1</dim>
					<dim>32</dim>
					<dim>80</dim>
					<dim>80</dim>
				</port>
				<port id="1" precision="FP32">
					<dim>1</dim>
					<dim>32</dim>
					<dim>80</dim>
					<dim>80</dim>
				</port>
			</input>
			<output>
				<port id="2" precision="FP32" names="/model.4/Concat_output_0">
					<dim>1</dim>
					<dim>64</dim>
					<dim>80</dim>
					<dim>80</dim>
				</port>
			</output>
		</layer>
		<layer id="104" name="model.4.cv3.conv.weight_compressed" type="Const" version="opset1">
			<data element_type="f16" shape="64, 64, 1, 1" offset="108704" size="8192" />
			<output>
				<port id="0" precision="FP16">
					<dim>64</dim>
					<dim>64</dim>
					<dim>1</dim>
					<dim>1</dim>
				</port>
			</output>
		</layer>
		<layer id="105" name="model.4.cv3.conv.weight" type="Convert" version="opset1">
			<data destination_type="f32" />
			<rt_info>
				<attribute name="decompression" version="0" />
			</rt_info>
			<input>
				<port id="0" precision="FP16">
					<dim>64</dim>
					<dim>64</dim>
					<dim>1</dim>
					<dim>1</dim>
				</port>
			</input>
			<output>
				<port id="1" precision="FP32" names="model.4.cv3.conv.weight">
					<dim>64</dim>
					<dim>64</dim>
					<dim>1</dim>
					<dim>1</dim>
				</port>
			</output>
		</layer>
		<layer id="106" name="/model.4/cv3/conv/Conv/WithoutBiases" type="Convolution" version="opset1">
			<data strides="1, 1" dilations="1, 1" pads_begin="0, 0" pads_end="0, 0" auto_pad="explicit" />
			<input>
				<port id="0" precision="FP32">
					<dim>1</dim>
					<dim>64</dim>
					<dim>80</dim>
					<dim>80</dim>
				</port>
				<port id="1" precision="FP32">
					<dim>64</dim>
					<dim>64</dim>
					<dim>1</dim>
					<dim>1</dim>
				</port>
			</input>
			<output>
				<port id="2" precision="FP32">
					<dim>1</dim>
					<dim>64</dim>
					<dim>80</dim>
					<dim>80</dim>
				</port>
			</output>
		</layer>
		<layer id="107" name="Reshape_394_compressed" type="Const" version="opset1">
			<data element_type="f16" shape="1, 64, 1, 1" offset="116896" size="128" />
			<output>
				<port id="0" precision="FP16">
					<dim>1</dim>
					<dim>64</dim>
					<dim>1</dim>
					<dim>1</dim>
				</port>
			</output>
		</layer>
		<layer id="108" name="Reshape_394" type="Convert" version="opset1">
			<data destination_type="f32" />
			<rt_info>
				<attribute name="decompression" version="0" />
			</rt_info>
			<input>
				<port id="0" precision="FP16">
					<dim>1</dim>
					<dim>64</dim>
					<dim>1</dim>
					<dim>1</dim>
				</port>
			</input>
			<output>
				<port id="1" precision="FP32">
					<dim>1</dim>
					<dim>64</dim>
					<dim>1</dim>
					<dim>1</dim>
				</port>
			</output>
		</layer>
		<layer id="109" name="/model.4/cv3/conv/Conv" type="Add" version="opset1">
			<data auto_broadcast="numpy" />
			<input>
				<port id="0" precision="FP32">
					<dim>1</dim>
					<dim>64</dim>
					<dim>80</dim>
					<dim>80</dim>
				</port>
				<port id="1" precision="FP32">
					<dim>1</dim>
					<dim>64</dim>
					<dim>1</dim>
					<dim>1</dim>
				</port>
			</input>
			<output>
				<port id="2" precision="FP32" names="/model.4/cv3/conv/Conv_output_0">
					<dim>1</dim>
					<dim>64</dim>
					<dim>80</dim>
					<dim>80</dim>
				</port>
			</output>
		</layer>
		<layer id="110" name="/model.4/cv3/act/Mul" type="Swish" version="opset4">
			<input>
				<port id="0" precision="FP32">
					<dim>1</dim>
					<dim>64</dim>
					<dim>80</dim>
					<dim>80</dim>
				</port>
			</input>
			<output>
				<port id="1" precision="FP32" names="/model.4/cv3/act/Mul_output_0">
					<dim>1</dim>
					<dim>64</dim>
					<dim>80</dim>
					<dim>80</dim>
				</port>
			</output>
		</layer>
		<layer id="111" name="model.5.conv.weight_compressed" type="Const" version="opset1">
			<data element_type="f16" shape="128, 64, 3, 3" offset="117024" size="147456" />
			<output>
				<port id="0" precision="FP16">
					<dim>128</dim>
					<dim>64</dim>
					<dim>3</dim>
					<dim>3</dim>
				</port>
			</output>
		</layer>
		<layer id="112" name="model.5.conv.weight" type="Convert" version="opset1">
			<data destination_type="f32" />
			<rt_info>
				<attribute name="decompression" version="0" />
			</rt_info>
			<input>
				<port id="0" precision="FP16">
					<dim>128</dim>
					<dim>64</dim>
					<dim>3</dim>
					<dim>3</dim>
				</port>
			</input>
			<output>
				<port id="1" precision="FP32" names="model.5.conv.weight">
					<dim>128</dim>
					<dim>64</dim>
					<dim>3</dim>
					<dim>3</dim>
				</port>
			</output>
		</layer>
		<layer id="113" name="/model.5/conv/Conv/WithoutBiases" type="Convolution" version="opset1">
			<data strides="2, 2" dilations="1, 1" pads_begin="1, 1" pads_end="1, 1" auto_pad="explicit" />
			<input>
				<port id="0" precision="FP32">
					<dim>1</dim>
					<dim>64</dim>
					<dim>80</dim>
					<dim>80</dim>
				</port>
				<port id="1" precision="FP32">
					<dim>128</dim>
					<dim>64</dim>
					<dim>3</dim>
					<dim>3</dim>
				</port>
			</input>
			<output>
				<port id="2" precision="FP32">
					<dim>1</dim>
					<dim>128</dim>
					<dim>40</dim>
					<dim>40</dim>
				</port>
			</output>
		</layer>
		<layer id="114" name="Reshape_411_compressed" type="Const" version="opset1">
			<data element_type="f16" shape="1, 128, 1, 1" offset="264480" size="256" />
			<output>
				<port id="0" precision="FP16">
					<dim>1</dim>
					<dim>128</dim>
					<dim>1</dim>
					<dim>1</dim>
				</port>
			</output>
		</layer>
		<layer id="115" name="Reshape_411" type="Convert" version="opset1">
			<data destination_type="f32" />
			<rt_info>
				<attribute name="decompression" version="0" />
			</rt_info>
			<input>
				<port id="0" precision="FP16">
					<dim>1</dim>
					<dim>128</dim>
					<dim>1</dim>
					<dim>1</dim>
				</port>
			</input>
			<output>
				<port id="1" precision="FP32">
					<dim>1</dim>
					<dim>128</dim>
					<dim>1</dim>
					<dim>1</dim>
				</port>
			</output>
		</layer>
		<layer id="116" name="/model.5/conv/Conv" type="Add" version="opset1">
			<data auto_broadcast="numpy" />
			<input>
				<port id="0" precision="FP32">
					<dim>1</dim>
					<dim>128</dim>
					<dim>40</dim>
					<dim>40</dim>
				</port>
				<port id="1" precision="FP32">
					<dim>1</dim>
					<dim>128</dim>
					<dim>1</dim>
					<dim>1</dim>
				</port>
			</input>
			<output>
				<port id="2" precision="FP32" names="/model.5/conv/Conv_output_0">
					<dim>1</dim>
					<dim>128</dim>
					<dim>40</dim>
					<dim>40</dim>
				</port>
			</output>
		</layer>
		<layer id="117" name="/model.5/act/Mul" type="Swish" version="opset4">
			<input>
				<port id="0" precision="FP32">
					<dim>1</dim>
					<dim>128</dim>
					<dim>40</dim>
					<dim>40</dim>
				</port>
			</input>
			<output>
				<port id="1" precision="FP32" names="/model.5/act/Mul_output_0">
					<dim>1</dim>
					<dim>128</dim>
					<dim>40</dim>
					<dim>40</dim>
				</port>
			</output>
		</layer>
		<layer id="118" name="model.6.cv1.conv.weight_compressed" type="Const" version="opset1">
			<data element_type="f16" shape="64, 128, 1, 1" offset="264736" size="16384" />
			<output>
				<port id="0" precision="FP16">
					<dim>64</dim>
					<dim>128</dim>
					<dim>1</dim>
					<dim>1</dim>
				</port>
			</output>
		</layer>
		<layer id="119" name="model.6.cv1.conv.weight" type="Convert" version="opset1">
			<data destination_type="f32" />
			<rt_info>
				<attribute name="decompression" version="0" />
			</rt_info>
			<input>
				<port id="0" precision="FP16">
					<dim>64</dim>
					<dim>128</dim>
					<dim>1</dim>
					<dim>1</dim>
				</port>
			</input>
			<output>
				<port id="1" precision="FP32" names="model.6.cv1.conv.weight">
					<dim>64</dim>
					<dim>128</dim>
					<dim>1</dim>
					<dim>1</dim>
				</port>
			</output>
		</layer>
		<layer id="120" name="/model.6/cv1/conv/Conv/WithoutBiases" type="Convolution" version="opset1">
			<data strides="1, 1" dilations="1, 1" pads_begin="0, 0" pads_end="0, 0" auto_pad="explicit" />
			<input>
				<port id="0" precision="FP32">
					<dim>1</dim>
					<dim>128</dim>
					<dim>40</dim>
					<dim>40</dim>
				</port>
				<port id="1" precision="FP32">
					<dim>64</dim>
					<dim>128</dim>
					<dim>1</dim>
					<dim>1</dim>
				</port>
			</input>
			<output>
				<port id="2" precision="FP32">
					<dim>1</dim>
					<dim>64</dim>
					<dim>40</dim>
					<dim>40</dim>
				</port>
			</output>
		</layer>
		<layer id="121" name="Reshape_428_compressed" type="Const" version="opset1">
			<data element_type="f16" shape="1, 64, 1, 1" offset="281120" size="128" />
			<output>
				<port id="0" precision="FP16">
					<dim>1</dim>
					<dim>64</dim>
					<dim>1</dim>
					<dim>1</dim>
				</port>
			</output>
		</layer>
		<layer id="122" name="Reshape_428" type="Convert" version="opset1">
			<data destination_type="f32" />
			<rt_info>
				<attribute name="decompression" version="0" />
			</rt_info>
			<input>
				<port id="0" precision="FP16">
					<dim>1</dim>
					<dim>64</dim>
					<dim>1</dim>
					<dim>1</dim>
				</port>
			</input>
			<output>
				<port id="1" precision="FP32">
					<dim>1</dim>
					<dim>64</dim>
					<dim>1</dim>
					<dim>1</dim>
				</port>
			</output>
		</layer>
		<layer id="123" name="/model.6/cv1/conv/Conv" type="Add" version="opset1">
			<data auto_broadcast="numpy" />
			<input>
				<port id="0" precision="FP32">
					<dim>1</dim>
					<dim>64</dim>
					<dim>40</dim>
					<dim>40</dim>
				</port>
				<port id="1" precision="FP32">
					<dim>1</dim>
					<dim>64</dim>
					<dim>1</dim>
					<dim>1</dim>
				</port>
			</input>
			<output>
				<port id="2" precision="FP32" names="/model.6/cv1/conv/Conv_output_0">
					<dim>1</dim>
					<dim>64</dim>
					<dim>40</dim>
					<dim>40</dim>
				</port>
			</output>
		</layer>
		<layer id="124" name="/model.6/cv1/act/Mul" type="Swish" version="opset4">
			<input>
				<port id="0" precision="FP32">
					<dim>1</dim>
					<dim>64</dim>
					<dim>40</dim>
					<dim>40</dim>
				</port>
			</input>
			<output>
				<port id="1" precision="FP32" names="/model.6/cv1/act/Mul_output_0">
					<dim>1</dim>
					<dim>64</dim>
					<dim>40</dim>
					<dim>40</dim>
				</port>
			</output>
		</layer>
		<layer id="125" name="model.6.m.0.cv1.conv.weight_compressed" type="Const" version="opset1">
			<data element_type="f16" shape="64, 64, 1, 1" offset="281248" size="8192" />
			<output>
				<port id="0" precision="FP16">
					<dim>64</dim>
					<dim>64</dim>
					<dim>1</dim>
					<dim>1</dim>
				</port>
			</output>
		</layer>
		<layer id="126" name="model.6.m.0.cv1.conv.weight" type="Convert" version="opset1">
			<data destination_type="f32" />
			<rt_info>
				<attribute name="decompression" version="0" />
			</rt_info>
			<input>
				<port id="0" precision="FP16">
					<dim>64</dim>
					<dim>64</dim>
					<dim>1</dim>
					<dim>1</dim>
				</port>
			</input>
			<output>
				<port id="1" precision="FP32" names="model.6.m.0.cv1.conv.weight">
					<dim>64</dim>
					<dim>64</dim>
					<dim>1</dim>
					<dim>1</dim>
				</port>
			</output>
		</layer>
		<layer id="127" name="/model.6/m/m.0/cv1/conv/Conv/WithoutBiases" type="Convolution" version="opset1">
			<data strides="1, 1" dilations="1, 1" pads_begin="0, 0" pads_end="0, 0" auto_pad="explicit" />
			<input>
				<port id="0" precision="FP32">
					<dim>1</dim>
					<dim>64</dim>
					<dim>40</dim>
					<dim>40</dim>
				</port>
				<port id="1" precision="FP32">
					<dim>64</dim>
					<dim>64</dim>
					<dim>1</dim>
					<dim>1</dim>
				</port>
			</input>
			<output>
				<port id="2" precision="FP32">
					<dim>1</dim>
					<dim>64</dim>
					<dim>40</dim>
					<dim>40</dim>
				</port>
			</output>
		</layer>
		<layer id="128" name="Reshape_445_compressed" type="Const" version="opset1">
			<data element_type="f16" shape="1, 64, 1, 1" offset="289440" size="128" />
			<output>
				<port id="0" precision="FP16">
					<dim>1</dim>
					<dim>64</dim>
					<dim>1</dim>
					<dim>1</dim>
				</port>
			</output>
		</layer>
		<layer id="129" name="Reshape_445" type="Convert" version="opset1">
			<data destination_type="f32" />
			<rt_info>
				<attribute name="decompression" version="0" />
			</rt_info>
			<input>
				<port id="0" precision="FP16">
					<dim>1</dim>
					<dim>64</dim>
					<dim>1</dim>
					<dim>1</dim>
				</port>
			</input>
			<output>
				<port id="1" precision="FP32">
					<dim>1</dim>
					<dim>64</dim>
					<dim>1</dim>
					<dim>1</dim>
				</port>
			</output>
		</layer>
		<layer id="130" name="/model.6/m/m.0/cv1/conv/Conv" type="Add" version="opset1">
			<data auto_broadcast="numpy" />
			<input>
				<port id="0" precision="FP32">
					<dim>1</dim>
					<dim>64</dim>
					<dim>40</dim>
					<dim>40</dim>
				</port>
				<port id="1" precision="FP32">
					<dim>1</dim>
					<dim>64</dim>
					<dim>1</dim>
					<dim>1</dim>
				</port>
			</input>
			<output>
				<port id="2" precision="FP32" names="/model.6/m/m.0/cv1/conv/Conv_output_0">
					<dim>1</dim>
					<dim>64</dim>
					<dim>40</dim>
					<dim>40</dim>
				</port>
			</output>
		</layer>
		<layer id="131" name="/model.6/m/m.0/cv1/act/Mul" type="Swish" version="opset4">
			<input>
				<port id="0" precision="FP32">
					<dim>1</dim>
					<dim>64</dim>
					<dim>40</dim>
					<dim>40</dim>
				</port>
			</input>
			<output>
				<port id="1" precision="FP32" names="/model.6/m/m.0/cv1/act/Mul_output_0">
					<dim>1</dim>
					<dim>64</dim>
					<dim>40</dim>
					<dim>40</dim>
				</port>
			</output>
		</layer>
		<layer id="132" name="model.6.m.0.cv2.conv.weight_compressed" type="Const" version="opset1">
			<data element_type="f16" shape="64, 64, 3, 3" offset="289568" size="73728" />
			<output>
				<port id="0" precision="FP16">
					<dim>64</dim>
					<dim>64</dim>
					<dim>3</dim>
					<dim>3</dim>
				</port>
			</output>
		</layer>
		<layer id="133" name="model.6.m.0.cv2.conv.weight" type="Convert" version="opset1">
			<data destination_type="f32" />
			<rt_info>
				<attribute name="decompression" version="0" />
			</rt_info>
			<input>
				<port id="0" precision="FP16">
					<dim>64</dim>
					<dim>64</dim>
					<dim>3</dim>
					<dim>3</dim>
				</port>
			</input>
			<output>
				<port id="1" precision="FP32" names="model.6.m.0.cv2.conv.weight">
					<dim>64</dim>
					<dim>64</dim>
					<dim>3</dim>
					<dim>3</dim>
				</port>
			</output>
		</layer>
		<layer id="134" name="/model.6/m/m.0/cv2/conv/Conv/WithoutBiases" type="Convolution" version="opset1">
			<data strides="1, 1" dilations="1, 1" pads_begin="1, 1" pads_end="1, 1" auto_pad="explicit" />
			<input>
				<port id="0" precision="FP32">
					<dim>1</dim>
					<dim>64</dim>
					<dim>40</dim>
					<dim>40</dim>
				</port>
				<port id="1" precision="FP32">
					<dim>64</dim>
					<dim>64</dim>
					<dim>3</dim>
					<dim>3</dim>
				</port>
			</input>
			<output>
				<port id="2" precision="FP32">
					<dim>1</dim>
					<dim>64</dim>
					<dim>40</dim>
					<dim>40</dim>
				</port>
			</output>
		</layer>
		<layer id="135" name="Reshape_462_compressed" type="Const" version="opset1">
			<data element_type="f16" shape="1, 64, 1, 1" offset="363296" size="128" />
			<output>
				<port id="0" precision="FP16">
					<dim>1</dim>
					<dim>64</dim>
					<dim>1</dim>
					<dim>1</dim>
				</port>
			</output>
		</layer>
		<layer id="136" name="Reshape_462" type="Convert" version="opset1">
			<data destination_type="f32" />
			<rt_info>
				<attribute name="decompression" version="0" />
			</rt_info>
			<input>
				<port id="0" precision="FP16">
					<dim>1</dim>
					<dim>64</dim>
					<dim>1</dim>
					<dim>1</dim>
				</port>
			</input>
			<output>
				<port id="1" precision="FP32">
					<dim>1</dim>
					<dim>64</dim>
					<dim>1</dim>
					<dim>1</dim>
				</port>
			</output>
		</layer>
		<layer id="137" name="/model.6/m/m.0/cv2/conv/Conv" type="Add" version="opset1">
			<data auto_broadcast="numpy" />
			<input>
				<port id="0" precision="FP32">
					<dim>1</dim>
					<dim>64</dim>
					<dim>40</dim>
					<dim>40</dim>
				</port>
				<port id="1" precision="FP32">
					<dim>1</dim>
					<dim>64</dim>
					<dim>1</dim>
					<dim>1</dim>
				</port>
			</input>
			<output>
				<port id="2" precision="FP32" names="/model.6/m/m.0/cv2/conv/Conv_output_0">
					<dim>1</dim>
					<dim>64</dim>
					<dim>40</dim>
					<dim>40</dim>
				</port>
			</output>
		</layer>
		<layer id="138" name="/model.6/m/m.0/cv2/act/Mul" type="Swish" version="opset4">
			<input>
				<port id="0" precision="FP32">
					<dim>1</dim>
					<dim>64</dim>
					<dim>40</dim>
					<dim>40</dim>
				</port>
			</input>
			<output>
				<port id="1" precision="FP32" names="/model.6/m/m.0/cv2/act/Mul_output_0">
					<dim>1</dim>
					<dim>64</dim>
					<dim>40</dim>
					<dim>40</dim>
				</port>
			</output>
		</layer>
		<layer id="139" name="/model.6/m/m.0/Add" type="Add" version="opset1">
			<data auto_broadcast="numpy" />
			<input>
				<port id="0" precision="FP32">
					<dim>1</dim>
					<dim>64</dim>
					<dim>40</dim>
					<dim>40</dim>
				</port>
				<port id="1" precision="FP32">
					<dim>1</dim>
					<dim>64</dim>
					<dim>40</dim>
					<dim>40</dim>
				</port>
			</input>
			<output>
				<port id="2" precision="FP32" names="/model.6/m/m.0/Add_output_0">
					<dim>1</dim>
					<dim>64</dim>
					<dim>40</dim>
					<dim>40</dim>
				</port>
			</output>
		</layer>
		<layer id="140" name="model.6.m.1.cv1.conv.weight_compressed" type="Const" version="opset1">
			<data element_type="f16" shape="64, 64, 1, 1" offset="363424" size="8192" />
			<output>
				<port id="0" precision="FP16">
					<dim>64</dim>
					<dim>64</dim>
					<dim>1</dim>
					<dim>1</dim>
				</port>
			</output>
		</layer>
		<layer id="141" name="model.6.m.1.cv1.conv.weight" type="Convert" version="opset1">
			<data destination_type="f32" />
			<rt_info>
				<attribute name="decompression" version="0" />
			</rt_info>
			<input>
				<port id="0" precision="FP16">
					<dim>64</dim>
					<dim>64</dim>
					<dim>1</dim>
					<dim>1</dim>
				</port>
			</input>
			<output>
				<port id="1" precision="FP32" names="model.6.m.1.cv1.conv.weight">
					<dim>64</dim>
					<dim>64</dim>
					<dim>1</dim>
					<dim>1</dim>
				</port>
			</output>
		</layer>
		<layer id="142" name="/model.6/m/m.1/cv1/conv/Conv/WithoutBiases" type="Convolution" version="opset1">
			<data strides="1, 1" dilations="1, 1" pads_begin="0, 0" pads_end="0, 0" auto_pad="explicit" />
			<input>
				<port id="0" precision="FP32">
					<dim>1</dim>
					<dim>64</dim>
					<dim>40</dim>
					<dim>40</dim>
				</port>
				<port id="1" precision="FP32">
					<dim>64</dim>
					<dim>64</dim>
					<dim>1</dim>
					<dim>1</dim>
				</port>
			</input>
			<output>
				<port id="2" precision="FP32">
					<dim>1</dim>
					<dim>64</dim>
					<dim>40</dim>
					<dim>40</dim>
				</port>
			</output>
		</layer>
		<layer id="143" name="Reshape_480_compressed" type="Const" version="opset1">
			<data element_type="f16" shape="1, 64, 1, 1" offset="371616" size="128" />
			<output>
				<port id="0" precision="FP16">
					<dim>1</dim>
					<dim>64</dim>
					<dim>1</dim>
					<dim>1</dim>
				</port>
			</output>
		</layer>
		<layer id="144" name="Reshape_480" type="Convert" version="opset1">
			<data destination_type="f32" />
			<rt_info>
				<attribute name="decompression" version="0" />
			</rt_info>
			<input>
				<port id="0" precision="FP16">
					<dim>1</dim>
					<dim>64</dim>
					<dim>1</dim>
					<dim>1</dim>
				</port>
			</input>
			<output>
				<port id="1" precision="FP32">
					<dim>1</dim>
					<dim>64</dim>
					<dim>1</dim>
					<dim>1</dim>
				</port>
			</output>
		</layer>
		<layer id="145" name="/model.6/m/m.1/cv1/conv/Conv" type="Add" version="opset1">
			<data auto_broadcast="numpy" />
			<input>
				<port id="0" precision="FP32">
					<dim>1</dim>
					<dim>64</dim>
					<dim>40</dim>
					<dim>40</dim>
				</port>
				<port id="1" precision="FP32">
					<dim>1</dim>
					<dim>64</dim>
					<dim>1</dim>
					<dim>1</dim>
				</port>
			</input>
			<output>
				<port id="2" precision="FP32" names="/model.6/m/m.1/cv1/conv/Conv_output_0">
					<dim>1</dim>
					<dim>64</dim>
					<dim>40</dim>
					<dim>40</dim>
				</port>
			</output>
		</layer>
		<layer id="146" name="/model.6/m/m.1/cv1/act/Mul" type="Swish" version="opset4">
			<input>
				<port id="0" precision="FP32">
					<dim>1</dim>
					<dim>64</dim>
					<dim>40</dim>
					<dim>40</dim>
				</port>
			</input>
			<output>
				<port id="1" precision="FP32" names="/model.6/m/m.1/cv1/act/Mul_output_0">
					<dim>1</dim>
					<dim>64</dim>
					<dim>40</dim>
					<dim>40</dim>
				</port>
			</output>
		</layer>
		<layer id="147" name="model.6.m.1.cv2.conv.weight_compressed" type="Const" version="opset1">
			<data element_type="f16" shape="64, 64, 3, 3" offset="371744" size="73728" />
			<output>
				<port id="0" precision="FP16">
					<dim>64</dim>
					<dim>64</dim>
					<dim>3</dim>
					<dim>3</dim>
				</port>
			</output>
		</layer>
		<layer id="148" name="model.6.m.1.cv2.conv.weight" type="Convert" version="opset1">
			<data destination_type="f32" />
			<rt_info>
				<attribute name="decompression" version="0" />
			</rt_info>
			<input>
				<port id="0" precision="FP16">
					<dim>64</dim>
					<dim>64</dim>
					<dim>3</dim>
					<dim>3</dim>
				</port>
			</input>
			<output>
				<port id="1" precision="FP32" names="model.6.m.1.cv2.conv.weight">
					<dim>64</dim>
					<dim>64</dim>
					<dim>3</dim>
					<dim>3</dim>
				</port>
			</output>
		</layer>
		<layer id="149" name="/model.6/m/m.1/cv2/conv/Conv/WithoutBiases" type="Convolution" version="opset1">
			<data strides="1, 1" dilations="1, 1" pads_begin="1, 1" pads_end="1, 1" auto_pad="explicit" />
			<input>
				<port id="0" precision="FP32">
					<dim>1</dim>
					<dim>64</dim>
					<dim>40</dim>
					<dim>40</dim>
				</port>
				<port id="1" precision="FP32">
					<dim>64</dim>
					<dim>64</dim>
					<dim>3</dim>
					<dim>3</dim>
				</port>
			</input>
			<output>
				<port id="2" precision="FP32">
					<dim>1</dim>
					<dim>64</dim>
					<dim>40</dim>
					<dim>40</dim>
				</port>
			</output>
		</layer>
		<layer id="150" name="Reshape_497_compressed" type="Const" version="opset1">
			<data element_type="f16" shape="1, 64, 1, 1" offset="445472" size="128" />
			<output>
				<port id="0" precision="FP16">
					<dim>1</dim>
					<dim>64</dim>
					<dim>1</dim>
					<dim>1</dim>
				</port>
			</output>
		</layer>
		<layer id="151" name="Reshape_497" type="Convert" version="opset1">
			<data destination_type="f32" />
			<rt_info>
				<attribute name="decompression" version="0" />
			</rt_info>
			<input>
				<port id="0" precision="FP16">
					<dim>1</dim>
					<dim>64</dim>
					<dim>1</dim>
					<dim>1</dim>
				</port>
			</input>
			<output>
				<port id="1" precision="FP32">
					<dim>1</dim>
					<dim>64</dim>
					<dim>1</dim>
					<dim>1</dim>
				</port>
			</output>
		</layer>
		<layer id="152" name="/model.6/m/m.1/cv2/conv/Conv" type="Add" version="opset1">
			<data auto_broadcast="numpy" />
			<input>
				<port id="0" precision="FP32">
					<dim>1</dim>
					<dim>64</dim>
					<dim>40</dim>
					<dim>40</dim>
				</port>
				<port id="1" precision="FP32">
					<dim>1</dim>
					<dim>64</dim>
					<dim>1</dim>
					<dim>1</dim>
				</port>
			</input>
			<output>
				<port id="2" precision="FP32" names="/model.6/m/m.1/cv2/conv/Conv_output_0">
					<dim>1</dim>
					<dim>64</dim>
					<dim>40</dim>
					<dim>40</dim>
				</port>
			</output>
		</layer>
		<layer id="153" name="/model.6/m/m.1/cv2/act/Mul" type="Swish" version="opset4">
			<input>
				<port id="0" precision="FP32">
					<dim>1</dim>
					<dim>64</dim>
					<dim>40</dim>
					<dim>40</dim>
				</port>
			</input>
			<output>
				<port id="1" precision="FP32" names="/model.6/m/m.1/cv2/act/Mul_output_0">
					<dim>1</dim>
					<dim>64</dim>
					<dim>40</dim>
					<dim>40</dim>
				</port>
			</output>
		</layer>
		<layer id="154" name="/model.6/m/m.1/Add" type="Add" version="opset1">
			<data auto_broadcast="numpy" />
			<input>
				<port id="0" precision="FP32">
					<dim>1</dim>
					<dim>64</dim>
					<dim>40</dim>
					<dim>40</dim>
				</port>
				<port id="1" precision="FP32">
					<dim>1</dim>
					<dim>64</dim>
					<dim>40</dim>
					<dim>40</dim>
				</port>
			</input>
			<output>
				<port id="2" precision="FP32" names="/model.6/m/m.1/Add_output_0">
					<dim>1</dim>
					<dim>64</dim>
					<dim>40</dim>
					<dim>40</dim>
				</port>
			</output>
		</layer>
		<layer id="155" name="model.6.m.2.cv1.conv.weight_compressed" type="Const" version="opset1">
			<data element_type="f16" shape="64, 64, 1, 1" offset="445600" size="8192" />
			<output>
				<port id="0" precision="FP16">
					<dim>64</dim>
					<dim>64</dim>
					<dim>1</dim>
					<dim>1</dim>
				</port>
			</output>
		</layer>
		<layer id="156" name="model.6.m.2.cv1.conv.weight" type="Convert" version="opset1">
			<data destination_type="f32" />
			<rt_info>
				<attribute name="decompression" version="0" />
			</rt_info>
			<input>
				<port id="0" precision="FP16">
					<dim>64</dim>
					<dim>64</dim>
					<dim>1</dim>
					<dim>1</dim>
				</port>
			</input>
			<output>
				<port id="1" precision="FP32" names="model.6.m.2.cv1.conv.weight">
					<dim>64</dim>
					<dim>64</dim>
					<dim>1</dim>
					<dim>1</dim>
				</port>
			</output>
		</layer>
		<layer id="157" name="/model.6/m/m.2/cv1/conv/Conv/WithoutBiases" type="Convolution" version="opset1">
			<data strides="1, 1" dilations="1, 1" pads_begin="0, 0" pads_end="0, 0" auto_pad="explicit" />
			<input>
				<port id="0" precision="FP32">
					<dim>1</dim>
					<dim>64</dim>
					<dim>40</dim>
					<dim>40</dim>
				</port>
				<port id="1" precision="FP32">
					<dim>64</dim>
					<dim>64</dim>
					<dim>1</dim>
					<dim>1</dim>
				</port>
			</input>
			<output>
				<port id="2" precision="FP32">
					<dim>1</dim>
					<dim>64</dim>
					<dim>40</dim>
					<dim>40</dim>
				</port>
			</output>
		</layer>
		<layer id="158" name="Reshape_515_compressed" type="Const" version="opset1">
			<data element_type="f16" shape="1, 64, 1, 1" offset="453792" size="128" />
			<output>
				<port id="0" precision="FP16">
					<dim>1</dim>
					<dim>64</dim>
					<dim>1</dim>
					<dim>1</dim>
				</port>
			</output>
		</layer>
		<layer id="159" name="Reshape_515" type="Convert" version="opset1">
			<data destination_type="f32" />
			<rt_info>
				<attribute name="decompression" version="0" />
			</rt_info>
			<input>
				<port id="0" precision="FP16">
					<dim>1</dim>
					<dim>64</dim>
					<dim>1</dim>
					<dim>1</dim>
				</port>
			</input>
			<output>
				<port id="1" precision="FP32">
					<dim>1</dim>
					<dim>64</dim>
					<dim>1</dim>
					<dim>1</dim>
				</port>
			</output>
		</layer>
		<layer id="160" name="/model.6/m/m.2/cv1/conv/Conv" type="Add" version="opset1">
			<data auto_broadcast="numpy" />
			<input>
				<port id="0" precision="FP32">
					<dim>1</dim>
					<dim>64</dim>
					<dim>40</dim>
					<dim>40</dim>
				</port>
				<port id="1" precision="FP32">
					<dim>1</dim>
					<dim>64</dim>
					<dim>1</dim>
					<dim>1</dim>
				</port>
			</input>
			<output>
				<port id="2" precision="FP32" names="/model.6/m/m.2/cv1/conv/Conv_output_0">
					<dim>1</dim>
					<dim>64</dim>
					<dim>40</dim>
					<dim>40</dim>
				</port>
			</output>
		</layer>
		<layer id="161" name="/model.6/m/m.2/cv1/act/Mul" type="Swish" version="opset4">
			<input>
				<port id="0" precision="FP32">
					<dim>1</dim>
					<dim>64</dim>
					<dim>40</dim>
					<dim>40</dim>
				</port>
			</input>
			<output>
				<port id="1" precision="FP32" names="/model.6/m/m.2/cv1/act/Mul_output_0">
					<dim>1</dim>
					<dim>64</dim>
					<dim>40</dim>
					<dim>40</dim>
				</port>
			</output>
		</layer>
		<layer id="162" name="model.6.m.2.cv2.conv.weight_compressed" type="Const" version="opset1">
			<data element_type="f16" shape="64, 64, 3, 3" offset="453920" size="73728" />
			<output>
				<port id="0" precision="FP16">
					<dim>64</dim>
					<dim>64</dim>
					<dim>3</dim>
					<dim>3</dim>
				</port>
			</output>
		</layer>
		<layer id="163" name="model.6.m.2.cv2.conv.weight" type="Convert" version="opset1">
			<data destination_type="f32" />
			<rt_info>
				<attribute name="decompression" version="0" />
			</rt_info>
			<input>
				<port id="0" precision="FP16">
					<dim>64</dim>
					<dim>64</dim>
					<dim>3</dim>
					<dim>3</dim>
				</port>
			</input>
			<output>
				<port id="1" precision="FP32" names="model.6.m.2.cv2.conv.weight">
					<dim>64</dim>
					<dim>64</dim>
					<dim>3</dim>
					<dim>3</dim>
				</port>
			</output>
		</layer>
		<layer id="164" name="/model.6/m/m.2/cv2/conv/Conv/WithoutBiases" type="Convolution" version="opset1">
			<data strides="1, 1" dilations="1, 1" pads_begin="1, 1" pads_end="1, 1" auto_pad="explicit" />
			<input>
				<port id="0" precision="FP32">
					<dim>1</dim>
					<dim>64</dim>
					<dim>40</dim>
					<dim>40</dim>
				</port>
				<port id="1" precision="FP32">
					<dim>64</dim>
					<dim>64</dim>
					<dim>3</dim>
					<dim>3</dim>
				</port>
			</input>
			<output>
				<port id="2" precision="FP32">
					<dim>1</dim>
					<dim>64</dim>
					<dim>40</dim>
					<dim>40</dim>
				</port>
			</output>
		</layer>
		<layer id="165" name="Reshape_532_compressed" type="Const" version="opset1">
			<data element_type="f16" shape="1, 64, 1, 1" offset="527648" size="128" />
			<output>
				<port id="0" precision="FP16">
					<dim>1</dim>
					<dim>64</dim>
					<dim>1</dim>
					<dim>1</dim>
				</port>
			</output>
		</layer>
		<layer id="166" name="Reshape_532" type="Convert" version="opset1">
			<data destination_type="f32" />
			<rt_info>
				<attribute name="decompression" version="0" />
			</rt_info>
			<input>
				<port id="0" precision="FP16">
					<dim>1</dim>
					<dim>64</dim>
					<dim>1</dim>
					<dim>1</dim>
				</port>
			</input>
			<output>
				<port id="1" precision="FP32">
					<dim>1</dim>
					<dim>64</dim>
					<dim>1</dim>
					<dim>1</dim>
				</port>
			</output>
		</layer>
		<layer id="167" name="/model.6/m/m.2/cv2/conv/Conv" type="Add" version="opset1">
			<data auto_broadcast="numpy" />
			<input>
				<port id="0" precision="FP32">
					<dim>1</dim>
					<dim>64</dim>
					<dim>40</dim>
					<dim>40</dim>
				</port>
				<port id="1" precision="FP32">
					<dim>1</dim>
					<dim>64</dim>
					<dim>1</dim>
					<dim>1</dim>
				</port>
			</input>
			<output>
				<port id="2" precision="FP32" names="/model.6/m/m.2/cv2/conv/Conv_output_0">
					<dim>1</dim>
					<dim>64</dim>
					<dim>40</dim>
					<dim>40</dim>
				</port>
			</output>
		</layer>
		<layer id="168" name="/model.6/m/m.2/cv2/act/Mul" type="Swish" version="opset4">
			<input>
				<port id="0" precision="FP32">
					<dim>1</dim>
					<dim>64</dim>
					<dim>40</dim>
					<dim>40</dim>
				</port>
			</input>
			<output>
				<port id="1" precision="FP32" names="/model.6/m/m.2/cv2/act/Mul_output_0">
					<dim>1</dim>
					<dim>64</dim>
					<dim>40</dim>
					<dim>40</dim>
				</port>
			</output>
		</layer>
		<layer id="169" name="/model.6/m/m.2/Add" type="Add" version="opset1">
			<data auto_broadcast="numpy" />
			<input>
				<port id="0" precision="FP32">
					<dim>1</dim>
					<dim>64</dim>
					<dim>40</dim>
					<dim>40</dim>
				</port>
				<port id="1" precision="FP32">
					<dim>1</dim>
					<dim>64</dim>
					<dim>40</dim>
					<dim>40</dim>
				</port>
			</input>
			<output>
				<port id="2" precision="FP32" names="/model.6/m/m.2/Add_output_0">
					<dim>1</dim>
					<dim>64</dim>
					<dim>40</dim>
					<dim>40</dim>
				</port>
			</output>
		</layer>
		<layer id="170" name="model.6.cv2.conv.weight_compressed" type="Const" version="opset1">
			<data element_type="f16" shape="64, 128, 1, 1" offset="527776" size="16384" />
			<output>
				<port id="0" precision="FP16">
					<dim>64</dim>
					<dim>128</dim>
					<dim>1</dim>
					<dim>1</dim>
				</port>
			</output>
		</layer>
		<layer id="171" name="model.6.cv2.conv.weight" type="Convert" version="opset1">
			<data destination_type="f32" />
			<rt_info>
				<attribute name="decompression" version="0" />
			</rt_info>
			<input>
				<port id="0" precision="FP16">
					<dim>64</dim>
					<dim>128</dim>
					<dim>1</dim>
					<dim>1</dim>
				</port>
			</input>
			<output>
				<port id="1" precision="FP32" names="model.6.cv2.conv.weight">
					<dim>64</dim>
					<dim>128</dim>
					<dim>1</dim>
					<dim>1</dim>
				</port>
			</output>
		</layer>
		<layer id="172" name="/model.6/cv2/conv/Conv/WithoutBiases" type="Convolution" version="opset1">
			<data strides="1, 1" dilations="1, 1" pads_begin="0, 0" pads_end="0, 0" auto_pad="explicit" />
			<input>
				<port id="0" precision="FP32">
					<dim>1</dim>
					<dim>128</dim>
					<dim>40</dim>
					<dim>40</dim>
				</port>
				<port id="1" precision="FP32">
					<dim>64</dim>
					<dim>128</dim>
					<dim>1</dim>
					<dim>1</dim>
				</port>
			</input>
			<output>
				<port id="2" precision="FP32">
					<dim>1</dim>
					<dim>64</dim>
					<dim>40</dim>
					<dim>40</dim>
				</port>
			</output>
		</layer>
		<layer id="173" name="Reshape_550_compressed" type="Const" version="opset1">
			<data element_type="f16" shape="1, 64, 1, 1" offset="544160" size="128" />
			<output>
				<port id="0" precision="FP16">
					<dim>1</dim>
					<dim>64</dim>
					<dim>1</dim>
					<dim>1</dim>
				</port>
			</output>
		</layer>
		<layer id="174" name="Reshape_550" type="Convert" version="opset1">
			<data destination_type="f32" />
			<rt_info>
				<attribute name="decompression" version="0" />
			</rt_info>
			<input>
				<port id="0" precision="FP16">
					<dim>1</dim>
					<dim>64</dim>
					<dim>1</dim>
					<dim>1</dim>
				</port>
			</input>
			<output>
				<port id="1" precision="FP32">
					<dim>1</dim>
					<dim>64</dim>
					<dim>1</dim>
					<dim>1</dim>
				</port>
			</output>
		</layer>
		<layer id="175" name="/model.6/cv2/conv/Conv" type="Add" version="opset1">
			<data auto_broadcast="numpy" />
			<input>
				<port id="0" precision="FP32">
					<dim>1</dim>
					<dim>64</dim>
					<dim>40</dim>
					<dim>40</dim>
				</port>
				<port id="1" precision="FP32">
					<dim>1</dim>
					<dim>64</dim>
					<dim>1</dim>
					<dim>1</dim>
				</port>
			</input>
			<output>
				<port id="2" precision="FP32" names="/model.6/cv2/conv/Conv_output_0">
					<dim>1</dim>
					<dim>64</dim>
					<dim>40</dim>
					<dim>40</dim>
				</port>
			</output>
		</layer>
		<layer id="176" name="/model.6/cv2/act/Mul" type="Swish" version="opset4">
			<input>
				<port id="0" precision="FP32">
					<dim>1</dim>
					<dim>64</dim>
					<dim>40</dim>
					<dim>40</dim>
				</port>
			</input>
			<output>
				<port id="1" precision="FP32" names="/model.6/cv2/act/Mul_output_0">
					<dim>1</dim>
					<dim>64</dim>
					<dim>40</dim>
					<dim>40</dim>
				</port>
			</output>
		</layer>
		<layer id="177" name="/model.6/Concat" type="Concat" version="opset1">
			<data axis="1" />
			<input>
				<port id="0" precision="FP32">
					<dim>1</dim>
					<dim>64</dim>
					<dim>40</dim>
					<dim>40</dim>
				</port>
				<port id="1" precision="FP32">
					<dim>1</dim>
					<dim>64</dim>
					<dim>40</dim>
					<dim>40</dim>
				</port>
			</input>
			<output>
				<port id="2" precision="FP32" names="/model.6/Concat_output_0">
					<dim>1</dim>
					<dim>128</dim>
					<dim>40</dim>
					<dim>40</dim>
				</port>
			</output>
		</layer>
		<layer id="178" name="model.6.cv3.conv.weight_compressed" type="Const" version="opset1">
			<data element_type="f16" shape="128, 128, 1, 1" offset="544288" size="32768" />
			<output>
				<port id="0" precision="FP16">
					<dim>128</dim>
					<dim>128</dim>
					<dim>1</dim>
					<dim>1</dim>
				</port>
			</output>
		</layer>
		<layer id="179" name="model.6.cv3.conv.weight" type="Convert" version="opset1">
			<data destination_type="f32" />
			<rt_info>
				<attribute name="decompression" version="0" />
			</rt_info>
			<input>
				<port id="0" precision="FP16">
					<dim>128</dim>
					<dim>128</dim>
					<dim>1</dim>
					<dim>1</dim>
				</port>
			</input>
			<output>
				<port id="1" precision="FP32" names="model.6.cv3.conv.weight">
					<dim>128</dim>
					<dim>128</dim>
					<dim>1</dim>
					<dim>1</dim>
				</port>
			</output>
		</layer>
		<layer id="180" name="/model.6/cv3/conv/Conv/WithoutBiases" type="Convolution" version="opset1">
			<data strides="1, 1" dilations="1, 1" pads_begin="0, 0" pads_end="0, 0" auto_pad="explicit" />
			<input>
				<port id="0" precision="FP32">
					<dim>1</dim>
					<dim>128</dim>
					<dim>40</dim>
					<dim>40</dim>
				</port>
				<port id="1" precision="FP32">
					<dim>128</dim>
					<dim>128</dim>
					<dim>1</dim>
					<dim>1</dim>
				</port>
			</input>
			<output>
				<port id="2" precision="FP32">
					<dim>1</dim>
					<dim>128</dim>
					<dim>40</dim>
					<dim>40</dim>
				</port>
			</output>
		</layer>
		<layer id="181" name="Reshape_568_compressed" type="Const" version="opset1">
			<data element_type="f16" shape="1, 128, 1, 1" offset="577056" size="256" />
			<output>
				<port id="0" precision="FP16">
					<dim>1</dim>
					<dim>128</dim>
					<dim>1</dim>
					<dim>1</dim>
				</port>
			</output>
		</layer>
		<layer id="182" name="Reshape_568" type="Convert" version="opset1">
			<data destination_type="f32" />
			<rt_info>
				<attribute name="decompression" version="0" />
			</rt_info>
			<input>
				<port id="0" precision="FP16">
					<dim>1</dim>
					<dim>128</dim>
					<dim>1</dim>
					<dim>1</dim>
				</port>
			</input>
			<output>
				<port id="1" precision="FP32">
					<dim>1</dim>
					<dim>128</dim>
					<dim>1</dim>
					<dim>1</dim>
				</port>
			</output>
		</layer>
		<layer id="183" name="/model.6/cv3/conv/Conv" type="Add" version="opset1">
			<data auto_broadcast="numpy" />
			<input>
				<port id="0" precision="FP32">
					<dim>1</dim>
					<dim>128</dim>
					<dim>40</dim>
					<dim>40</dim>
				</port>
				<port id="1" precision="FP32">
					<dim>1</dim>
					<dim>128</dim>
					<dim>1</dim>
					<dim>1</dim>
				</port>
			</input>
			<output>
				<port id="2" precision="FP32" names="/model.6/cv3/conv/Conv_output_0">
					<dim>1</dim>
					<dim>128</dim>
					<dim>40</dim>
					<dim>40</dim>
				</port>
			</output>
		</layer>
		<layer id="184" name="/model.6/cv3/act/Mul" type="Swish" version="opset4">
			<input>
				<port id="0" precision="FP32">
					<dim>1</dim>
					<dim>128</dim>
					<dim>40</dim>
					<dim>40</dim>
				</port>
			</input>
			<output>
				<port id="1" precision="FP32" names="/model.6/cv3/act/Mul_output_0">
					<dim>1</dim>
					<dim>128</dim>
					<dim>40</dim>
					<dim>40</dim>
				</port>
			</output>
		</layer>
		<layer id="185" name="model.7.conv.weight_compressed" type="Const" version="opset1">
			<data element_type="f16" shape="256, 128, 3, 3" offset="577312" size="589824" />
			<output>
				<port id="0" precision="FP16">
					<dim>256</dim>
					<dim>128</dim>
					<dim>3</dim>
					<dim>3</dim>
				</port>
			</output>
		</layer>
		<layer id="186" name="model.7.conv.weight" type="Convert" version="opset1">
			<data destination_type="f32" />
			<rt_info>
				<attribute name="decompression" version="0" />
			</rt_info>
			<input>
				<port id="0" precision="FP16">
					<dim>256</dim>
					<dim>128</dim>
					<dim>3</dim>
					<dim>3</dim>
				</port>
			</input>
			<output>
				<port id="1" precision="FP32" names="model.7.conv.weight">
					<dim>256</dim>
					<dim>128</dim>
					<dim>3</dim>
					<dim>3</dim>
				</port>
			</output>
		</layer>
		<layer id="187" name="/model.7/conv/Conv/WithoutBiases" type="Convolution" version="opset1">
			<data strides="2, 2" dilations="1, 1" pads_begin="1, 1" pads_end="1, 1" auto_pad="explicit" />
			<input>
				<port id="0" precision="FP32">
					<dim>1</dim>
					<dim>128</dim>
					<dim>40</dim>
					<dim>40</dim>
				</port>
				<port id="1" precision="FP32">
					<dim>256</dim>
					<dim>128</dim>
					<dim>3</dim>
					<dim>3</dim>
				</port>
			</input>
			<output>
				<port id="2" precision="FP32">
					<dim>1</dim>
					<dim>256</dim>
					<dim>20</dim>
					<dim>20</dim>
				</port>
			</output>
		</layer>
		<layer id="188" name="Reshape_585_compressed" type="Const" version="opset1">
			<data element_type="f16" shape="1, 256, 1, 1" offset="1167136" size="512" />
			<output>
				<port id="0" precision="FP16">
					<dim>1</dim>
					<dim>256</dim>
					<dim>1</dim>
					<dim>1</dim>
				</port>
			</output>
		</layer>
		<layer id="189" name="Reshape_585" type="Convert" version="opset1">
			<data destination_type="f32" />
			<rt_info>
				<attribute name="decompression" version="0" />
			</rt_info>
			<input>
				<port id="0" precision="FP16">
					<dim>1</dim>
					<dim>256</dim>
					<dim>1</dim>
					<dim>1</dim>
				</port>
			</input>
			<output>
				<port id="1" precision="FP32">
					<dim>1</dim>
					<dim>256</dim>
					<dim>1</dim>
					<dim>1</dim>
				</port>
			</output>
		</layer>
		<layer id="190" name="/model.7/conv/Conv" type="Add" version="opset1">
			<data auto_broadcast="numpy" />
			<input>
				<port id="0" precision="FP32">
					<dim>1</dim>
					<dim>256</dim>
					<dim>20</dim>
					<dim>20</dim>
				</port>
				<port id="1" precision="FP32">
					<dim>1</dim>
					<dim>256</dim>
					<dim>1</dim>
					<dim>1</dim>
				</port>
			</input>
			<output>
				<port id="2" precision="FP32" names="/model.7/conv/Conv_output_0">
					<dim>1</dim>
					<dim>256</dim>
					<dim>20</dim>
					<dim>20</dim>
				</port>
			</output>
		</layer>
		<layer id="191" name="/model.7/act/Mul" type="Swish" version="opset4">
			<input>
				<port id="0" precision="FP32">
					<dim>1</dim>
					<dim>256</dim>
					<dim>20</dim>
					<dim>20</dim>
				</port>
			</input>
			<output>
				<port id="1" precision="FP32" names="/model.7/act/Mul_output_0">
					<dim>1</dim>
					<dim>256</dim>
					<dim>20</dim>
					<dim>20</dim>
				</port>
			</output>
		</layer>
		<layer id="192" name="model.8.cv1.conv.weight_compressed" type="Const" version="opset1">
			<data element_type="f16" shape="128, 256, 1, 1" offset="1167648" size="65536" />
			<output>
				<port id="0" precision="FP16">
					<dim>128</dim>
					<dim>256</dim>
					<dim>1</dim>
					<dim>1</dim>
				</port>
			</output>
		</layer>
		<layer id="193" name="model.8.cv1.conv.weight" type="Convert" version="opset1">
			<data destination_type="f32" />
			<rt_info>
				<attribute name="decompression" version="0" />
			</rt_info>
			<input>
				<port id="0" precision="FP16">
					<dim>128</dim>
					<dim>256</dim>
					<dim>1</dim>
					<dim>1</dim>
				</port>
			</input>
			<output>
				<port id="1" precision="FP32" names="model.8.cv1.conv.weight">
					<dim>128</dim>
					<dim>256</dim>
					<dim>1</dim>
					<dim>1</dim>
				</port>
			</output>
		</layer>
		<layer id="194" name="/model.8/cv1/conv/Conv/WithoutBiases" type="Convolution" version="opset1">
			<data strides="1, 1" dilations="1, 1" pads_begin="0, 0" pads_end="0, 0" auto_pad="explicit" />
			<input>
				<port id="0" precision="FP32">
					<dim>1</dim>
					<dim>256</dim>
					<dim>20</dim>
					<dim>20</dim>
				</port>
				<port id="1" precision="FP32">
					<dim>128</dim>
					<dim>256</dim>
					<dim>1</dim>
					<dim>1</dim>
				</port>
			</input>
			<output>
				<port id="2" precision="FP32">
					<dim>1</dim>
					<dim>128</dim>
					<dim>20</dim>
					<dim>20</dim>
				</port>
			</output>
		</layer>
		<layer id="195" name="Reshape_602_compressed" type="Const" version="opset1">
			<data element_type="f16" shape="1, 128, 1, 1" offset="1233184" size="256" />
			<output>
				<port id="0" precision="FP16">
					<dim>1</dim>
					<dim>128</dim>
					<dim>1</dim>
					<dim>1</dim>
				</port>
			</output>
		</layer>
		<layer id="196" name="Reshape_602" type="Convert" version="opset1">
			<data destination_type="f32" />
			<rt_info>
				<attribute name="decompression" version="0" />
			</rt_info>
			<input>
				<port id="0" precision="FP16">
					<dim>1</dim>
					<dim>128</dim>
					<dim>1</dim>
					<dim>1</dim>
				</port>
			</input>
			<output>
				<port id="1" precision="FP32">
					<dim>1</dim>
					<dim>128</dim>
					<dim>1</dim>
					<dim>1</dim>
				</port>
			</output>
		</layer>
		<layer id="197" name="/model.8/cv1/conv/Conv" type="Add" version="opset1">
			<data auto_broadcast="numpy" />
			<input>
				<port id="0" precision="FP32">
					<dim>1</dim>
					<dim>128</dim>
					<dim>20</dim>
					<dim>20</dim>
				</port>
				<port id="1" precision="FP32">
					<dim>1</dim>
					<dim>128</dim>
					<dim>1</dim>
					<dim>1</dim>
				</port>
			</input>
			<output>
				<port id="2" precision="FP32" names="/model.8/cv1/conv/Conv_output_0">
					<dim>1</dim>
					<dim>128</dim>
					<dim>20</dim>
					<dim>20</dim>
				</port>
			</output>
		</layer>
		<layer id="198" name="/model.8/cv1/act/Mul" type="Swish" version="opset4">
			<input>
				<port id="0" precision="FP32">
					<dim>1</dim>
					<dim>128</dim>
					<dim>20</dim>
					<dim>20</dim>
				</port>
			</input>
			<output>
				<port id="1" precision="FP32" names="/model.8/cv1/act/Mul_output_0">
					<dim>1</dim>
					<dim>128</dim>
					<dim>20</dim>
					<dim>20</dim>
				</port>
			</output>
		</layer>
		<layer id="199" name="model.8.m.0.cv1.conv.weight_compressed" type="Const" version="opset1">
			<data element_type="f16" shape="128, 128, 1, 1" offset="1233440" size="32768" />
			<output>
				<port id="0" precision="FP16">
					<dim>128</dim>
					<dim>128</dim>
					<dim>1</dim>
					<dim>1</dim>
				</port>
			</output>
		</layer>
		<layer id="200" name="model.8.m.0.cv1.conv.weight" type="Convert" version="opset1">
			<data destination_type="f32" />
			<rt_info>
				<attribute name="decompression" version="0" />
			</rt_info>
			<input>
				<port id="0" precision="FP16">
					<dim>128</dim>
					<dim>128</dim>
					<dim>1</dim>
					<dim>1</dim>
				</port>
			</input>
			<output>
				<port id="1" precision="FP32" names="model.8.m.0.cv1.conv.weight">
					<dim>128</dim>
					<dim>128</dim>
					<dim>1</dim>
					<dim>1</dim>
				</port>
			</output>
		</layer>
		<layer id="201" name="/model.8/m/m.0/cv1/conv/Conv/WithoutBiases" type="Convolution" version="opset1">
			<data strides="1, 1" dilations="1, 1" pads_begin="0, 0" pads_end="0, 0" auto_pad="explicit" />
			<input>
				<port id="0" precision="FP32">
					<dim>1</dim>
					<dim>128</dim>
					<dim>20</dim>
					<dim>20</dim>
				</port>
				<port id="1" precision="FP32">
					<dim>128</dim>
					<dim>128</dim>
					<dim>1</dim>
					<dim>1</dim>
				</port>
			</input>
			<output>
				<port id="2" precision="FP32">
					<dim>1</dim>
					<dim>128</dim>
					<dim>20</dim>
					<dim>20</dim>
				</port>
			</output>
		</layer>
		<layer id="202" name="Reshape_619_compressed" type="Const" version="opset1">
			<data element_type="f16" shape="1, 128, 1, 1" offset="1266208" size="256" />
			<output>
				<port id="0" precision="FP16">
					<dim>1</dim>
					<dim>128</dim>
					<dim>1</dim>
					<dim>1</dim>
				</port>
			</output>
		</layer>
		<layer id="203" name="Reshape_619" type="Convert" version="opset1">
			<data destination_type="f32" />
			<rt_info>
				<attribute name="decompression" version="0" />
			</rt_info>
			<input>
				<port id="0" precision="FP16">
					<dim>1</dim>
					<dim>128</dim>
					<dim>1</dim>
					<dim>1</dim>
				</port>
			</input>
			<output>
				<port id="1" precision="FP32">
					<dim>1</dim>
					<dim>128</dim>
					<dim>1</dim>
					<dim>1</dim>
				</port>
			</output>
		</layer>
		<layer id="204" name="/model.8/m/m.0/cv1/conv/Conv" type="Add" version="opset1">
			<data auto_broadcast="numpy" />
			<input>
				<port id="0" precision="FP32">
					<dim>1</dim>
					<dim>128</dim>
					<dim>20</dim>
					<dim>20</dim>
				</port>
				<port id="1" precision="FP32">
					<dim>1</dim>
					<dim>128</dim>
					<dim>1</dim>
					<dim>1</dim>
				</port>
			</input>
			<output>
				<port id="2" precision="FP32" names="/model.8/m/m.0/cv1/conv/Conv_output_0">
					<dim>1</dim>
					<dim>128</dim>
					<dim>20</dim>
					<dim>20</dim>
				</port>
			</output>
		</layer>
		<layer id="205" name="/model.8/m/m.0/cv1/act/Mul" type="Swish" version="opset4">
			<input>
				<port id="0" precision="FP32">
					<dim>1</dim>
					<dim>128</dim>
					<dim>20</dim>
					<dim>20</dim>
				</port>
			</input>
			<output>
				<port id="1" precision="FP32" names="/model.8/m/m.0/cv1/act/Mul_output_0">
					<dim>1</dim>
					<dim>128</dim>
					<dim>20</dim>
					<dim>20</dim>
				</port>
			</output>
		</layer>
		<layer id="206" name="model.8.m.0.cv2.conv.weight_compressed" type="Const" version="opset1">
			<data element_type="f16" shape="128, 128, 3, 3" offset="1266464" size="294912" />
			<output>
				<port id="0" precision="FP16">
					<dim>128</dim>
					<dim>128</dim>
					<dim>3</dim>
					<dim>3</dim>
				</port>
			</output>
		</layer>
		<layer id="207" name="model.8.m.0.cv2.conv.weight" type="Convert" version="opset1">
			<data destination_type="f32" />
			<rt_info>
				<attribute name="decompression" version="0" />
			</rt_info>
			<input>
				<port id="0" precision="FP16">
					<dim>128</dim>
					<dim>128</dim>
					<dim>3</dim>
					<dim>3</dim>
				</port>
			</input>
			<output>
				<port id="1" precision="FP32" names="model.8.m.0.cv2.conv.weight">
					<dim>128</dim>
					<dim>128</dim>
					<dim>3</dim>
					<dim>3</dim>
				</port>
			</output>
		</layer>
		<layer id="208" name="/model.8/m/m.0/cv2/conv/Conv/WithoutBiases" type="Convolution" version="opset1">
			<data strides="1, 1" dilations="1, 1" pads_begin="1, 1" pads_end="1, 1" auto_pad="explicit" />
			<input>
				<port id="0" precision="FP32">
					<dim>1</dim>
					<dim>128</dim>
					<dim>20</dim>
					<dim>20</dim>
				</port>
				<port id="1" precision="FP32">
					<dim>128</dim>
					<dim>128</dim>
					<dim>3</dim>
					<dim>3</dim>
				</port>
			</input>
			<output>
				<port id="2" precision="FP32">
					<dim>1</dim>
					<dim>128</dim>
					<dim>20</dim>
					<dim>20</dim>
				</port>
			</output>
		</layer>
		<layer id="209" name="Reshape_636_compressed" type="Const" version="opset1">
			<data element_type="f16" shape="1, 128, 1, 1" offset="1561376" size="256" />
			<output>
				<port id="0" precision="FP16">
					<dim>1</dim>
					<dim>128</dim>
					<dim>1</dim>
					<dim>1</dim>
				</port>
			</output>
		</layer>
		<layer id="210" name="Reshape_636" type="Convert" version="opset1">
			<data destination_type="f32" />
			<rt_info>
				<attribute name="decompression" version="0" />
			</rt_info>
			<input>
				<port id="0" precision="FP16">
					<dim>1</dim>
					<dim>128</dim>
					<dim>1</dim>
					<dim>1</dim>
				</port>
			</input>
			<output>
				<port id="1" precision="FP32">
					<dim>1</dim>
					<dim>128</dim>
					<dim>1</dim>
					<dim>1</dim>
				</port>
			</output>
		</layer>
		<layer id="211" name="/model.8/m/m.0/cv2/conv/Conv" type="Add" version="opset1">
			<data auto_broadcast="numpy" />
			<input>
				<port id="0" precision="FP32">
					<dim>1</dim>
					<dim>128</dim>
					<dim>20</dim>
					<dim>20</dim>
				</port>
				<port id="1" precision="FP32">
					<dim>1</dim>
					<dim>128</dim>
					<dim>1</dim>
					<dim>1</dim>
				</port>
			</input>
			<output>
				<port id="2" precision="FP32" names="/model.8/m/m.0/cv2/conv/Conv_output_0">
					<dim>1</dim>
					<dim>128</dim>
					<dim>20</dim>
					<dim>20</dim>
				</port>
			</output>
		</layer>
		<layer id="212" name="/model.8/m/m.0/cv2/act/Mul" type="Swish" version="opset4">
			<input>
				<port id="0" precision="FP32">
					<dim>1</dim>
					<dim>128</dim>
					<dim>20</dim>
					<dim>20</dim>
				</port>
			</input>
			<output>
				<port id="1" precision="FP32" names="/model.8/m/m.0/cv2/act/Mul_output_0">
					<dim>1</dim>
					<dim>128</dim>
					<dim>20</dim>
					<dim>20</dim>
				</port>
			</output>
		</layer>
		<layer id="213" name="/model.8/m/m.0/Add" type="Add" version="opset1">
			<data auto_broadcast="numpy" />
			<input>
				<port id="0" precision="FP32">
					<dim>1</dim>
					<dim>128</dim>
					<dim>20</dim>
					<dim>20</dim>
				</port>
				<port id="1" precision="FP32">
					<dim>1</dim>
					<dim>128</dim>
					<dim>20</dim>
					<dim>20</dim>
				</port>
			</input>
			<output>
				<port id="2" precision="FP32" names="/model.8/m/m.0/Add_output_0">
					<dim>1</dim>
					<dim>128</dim>
					<dim>20</dim>
					<dim>20</dim>
				</port>
			</output>
		</layer>
		<layer id="214" name="model.8.cv2.conv.weight_compressed" type="Const" version="opset1">
			<data element_type="f16" shape="128, 256, 1, 1" offset="1561632" size="65536" />
			<output>
				<port id="0" precision="FP16">
					<dim>128</dim>
					<dim>256</dim>
					<dim>1</dim>
					<dim>1</dim>
				</port>
			</output>
		</layer>
		<layer id="215" name="model.8.cv2.conv.weight" type="Convert" version="opset1">
			<data destination_type="f32" />
			<rt_info>
				<attribute name="decompression" version="0" />
			</rt_info>
			<input>
				<port id="0" precision="FP16">
					<dim>128</dim>
					<dim>256</dim>
					<dim>1</dim>
					<dim>1</dim>
				</port>
			</input>
			<output>
				<port id="1" precision="FP32" names="model.8.cv2.conv.weight">
					<dim>128</dim>
					<dim>256</dim>
					<dim>1</dim>
					<dim>1</dim>
				</port>
			</output>
		</layer>
		<layer id="216" name="/model.8/cv2/conv/Conv/WithoutBiases" type="Convolution" version="opset1">
			<data strides="1, 1" dilations="1, 1" pads_begin="0, 0" pads_end="0, 0" auto_pad="explicit" />
			<input>
				<port id="0" precision="FP32">
					<dim>1</dim>
					<dim>256</dim>
					<dim>20</dim>
					<dim>20</dim>
				</port>
				<port id="1" precision="FP32">
					<dim>128</dim>
					<dim>256</dim>
					<dim>1</dim>
					<dim>1</dim>
				</port>
			</input>
			<output>
				<port id="2" precision="FP32">
					<dim>1</dim>
					<dim>128</dim>
					<dim>20</dim>
					<dim>20</dim>
				</port>
			</output>
		</layer>
		<layer id="217" name="Reshape_654_compressed" type="Const" version="opset1">
			<data element_type="f16" shape="1, 128, 1, 1" offset="1627168" size="256" />
			<output>
				<port id="0" precision="FP16">
					<dim>1</dim>
					<dim>128</dim>
					<dim>1</dim>
					<dim>1</dim>
				</port>
			</output>
		</layer>
		<layer id="218" name="Reshape_654" type="Convert" version="opset1">
			<data destination_type="f32" />
			<rt_info>
				<attribute name="decompression" version="0" />
			</rt_info>
			<input>
				<port id="0" precision="FP16">
					<dim>1</dim>
					<dim>128</dim>
					<dim>1</dim>
					<dim>1</dim>
				</port>
			</input>
			<output>
				<port id="1" precision="FP32">
					<dim>1</dim>
					<dim>128</dim>
					<dim>1</dim>
					<dim>1</dim>
				</port>
			</output>
		</layer>
		<layer id="219" name="/model.8/cv2/conv/Conv" type="Add" version="opset1">
			<data auto_broadcast="numpy" />
			<input>
				<port id="0" precision="FP32">
					<dim>1</dim>
					<dim>128</dim>
					<dim>20</dim>
					<dim>20</dim>
				</port>
				<port id="1" precision="FP32">
					<dim>1</dim>
					<dim>128</dim>
					<dim>1</dim>
					<dim>1</dim>
				</port>
			</input>
			<output>
				<port id="2" precision="FP32" names="/model.8/cv2/conv/Conv_output_0">
					<dim>1</dim>
					<dim>128</dim>
					<dim>20</dim>
					<dim>20</dim>
				</port>
			</output>
		</layer>
		<layer id="220" name="/model.8/cv2/act/Mul" type="Swish" version="opset4">
			<input>
				<port id="0" precision="FP32">
					<dim>1</dim>
					<dim>128</dim>
					<dim>20</dim>
					<dim>20</dim>
				</port>
			</input>
			<output>
				<port id="1" precision="FP32" names="/model.8/cv2/act/Mul_output_0">
					<dim>1</dim>
					<dim>128</dim>
					<dim>20</dim>
					<dim>20</dim>
				</port>
			</output>
		</layer>
		<layer id="221" name="/model.8/Concat" type="Concat" version="opset1">
			<data axis="1" />
			<input>
				<port id="0" precision="FP32">
					<dim>1</dim>
					<dim>128</dim>
					<dim>20</dim>
					<dim>20</dim>
				</port>
				<port id="1" precision="FP32">
					<dim>1</dim>
					<dim>128</dim>
					<dim>20</dim>
					<dim>20</dim>
				</port>
			</input>
			<output>
				<port id="2" precision="FP32" names="/model.8/Concat_output_0">
					<dim>1</dim>
					<dim>256</dim>
					<dim>20</dim>
					<dim>20</dim>
				</port>
			</output>
		</layer>
		<layer id="222" name="model.8.cv3.conv.weight_compressed" type="Const" version="opset1">
			<data element_type="f16" shape="256, 256, 1, 1" offset="1627424" size="131072" />
			<output>
				<port id="0" precision="FP16">
					<dim>256</dim>
					<dim>256</dim>
					<dim>1</dim>
					<dim>1</dim>
				</port>
			</output>
		</layer>
		<layer id="223" name="model.8.cv3.conv.weight" type="Convert" version="opset1">
			<data destination_type="f32" />
			<rt_info>
				<attribute name="decompression" version="0" />
			</rt_info>
			<input>
				<port id="0" precision="FP16">
					<dim>256</dim>
					<dim>256</dim>
					<dim>1</dim>
					<dim>1</dim>
				</port>
			</input>
			<output>
				<port id="1" precision="FP32" names="model.8.cv3.conv.weight">
					<dim>256</dim>
					<dim>256</dim>
					<dim>1</dim>
					<dim>1</dim>
				</port>
			</output>
		</layer>
		<layer id="224" name="/model.8/cv3/conv/Conv/WithoutBiases" type="Convolution" version="opset1">
			<data strides="1, 1" dilations="1, 1" pads_begin="0, 0" pads_end="0, 0" auto_pad="explicit" />
			<input>
				<port id="0" precision="FP32">
					<dim>1</dim>
					<dim>256</dim>
					<dim>20</dim>
					<dim>20</dim>
				</port>
				<port id="1" precision="FP32">
					<dim>256</dim>
					<dim>256</dim>
					<dim>1</dim>
					<dim>1</dim>
				</port>
			</input>
			<output>
				<port id="2" precision="FP32">
					<dim>1</dim>
					<dim>256</dim>
					<dim>20</dim>
					<dim>20</dim>
				</port>
			</output>
		</layer>
		<layer id="225" name="Reshape_672_compressed" type="Const" version="opset1">
			<data element_type="f16" shape="1, 256, 1, 1" offset="1758496" size="512" />
			<output>
				<port id="0" precision="FP16">
					<dim>1</dim>
					<dim>256</dim>
					<dim>1</dim>
					<dim>1</dim>
				</port>
			</output>
		</layer>
		<layer id="226" name="Reshape_672" type="Convert" version="opset1">
			<data destination_type="f32" />
			<rt_info>
				<attribute name="decompression" version="0" />
			</rt_info>
			<input>
				<port id="0" precision="FP16">
					<dim>1</dim>
					<dim>256</dim>
					<dim>1</dim>
					<dim>1</dim>
				</port>
			</input>
			<output>
				<port id="1" precision="FP32">
					<dim>1</dim>
					<dim>256</dim>
					<dim>1</dim>
					<dim>1</dim>
				</port>
			</output>
		</layer>
		<layer id="227" name="/model.8/cv3/conv/Conv" type="Add" version="opset1">
			<data auto_broadcast="numpy" />
			<input>
				<port id="0" precision="FP32">
					<dim>1</dim>
					<dim>256</dim>
					<dim>20</dim>
					<dim>20</dim>
				</port>
				<port id="1" precision="FP32">
					<dim>1</dim>
					<dim>256</dim>
					<dim>1</dim>
					<dim>1</dim>
				</port>
			</input>
			<output>
				<port id="2" precision="FP32" names="/model.8/cv3/conv/Conv_output_0">
					<dim>1</dim>
					<dim>256</dim>
					<dim>20</dim>
					<dim>20</dim>
				</port>
			</output>
		</layer>
		<layer id="228" name="/model.8/cv3/act/Mul" type="Swish" version="opset4">
			<input>
				<port id="0" precision="FP32">
					<dim>1</dim>
					<dim>256</dim>
					<dim>20</dim>
					<dim>20</dim>
				</port>
			</input>
			<output>
				<port id="1" precision="FP32" names="/model.8/cv3/act/Mul_output_0">
					<dim>1</dim>
					<dim>256</dim>
					<dim>20</dim>
					<dim>20</dim>
				</port>
			</output>
		</layer>
		<layer id="229" name="model.9.cv1.conv.weight_compressed" type="Const" version="opset1">
			<data element_type="f16" shape="128, 256, 1, 1" offset="1759008" size="65536" />
			<output>
				<port id="0" precision="FP16">
					<dim>128</dim>
					<dim>256</dim>
					<dim>1</dim>
					<dim>1</dim>
				</port>
			</output>
		</layer>
		<layer id="230" name="model.9.cv1.conv.weight" type="Convert" version="opset1">
			<data destination_type="f32" />
			<rt_info>
				<attribute name="decompression" version="0" />
			</rt_info>
			<input>
				<port id="0" precision="FP16">
					<dim>128</dim>
					<dim>256</dim>
					<dim>1</dim>
					<dim>1</dim>
				</port>
			</input>
			<output>
				<port id="1" precision="FP32" names="model.9.cv1.conv.weight">
					<dim>128</dim>
					<dim>256</dim>
					<dim>1</dim>
					<dim>1</dim>
				</port>
			</output>
		</layer>
		<layer id="231" name="/model.9/cv1/conv/Conv/WithoutBiases" type="Convolution" version="opset1">
			<data strides="1, 1" dilations="1, 1" pads_begin="0, 0" pads_end="0, 0" auto_pad="explicit" />
			<input>
				<port id="0" precision="FP32">
					<dim>1</dim>
					<dim>256</dim>
					<dim>20</dim>
					<dim>20</dim>
				</port>
				<port id="1" precision="FP32">
					<dim>128</dim>
					<dim>256</dim>
					<dim>1</dim>
					<dim>1</dim>
				</port>
			</input>
			<output>
				<port id="2" precision="FP32">
					<dim>1</dim>
					<dim>128</dim>
					<dim>20</dim>
					<dim>20</dim>
				</port>
			</output>
		</layer>
		<layer id="232" name="Reshape_689_compressed" type="Const" version="opset1">
			<data element_type="f16" shape="1, 128, 1, 1" offset="1824544" size="256" />
			<output>
				<port id="0" precision="FP16">
					<dim>1</dim>
					<dim>128</dim>
					<dim>1</dim>
					<dim>1</dim>
				</port>
			</output>
		</layer>
		<layer id="233" name="Reshape_689" type="Convert" version="opset1">
			<data destination_type="f32" />
			<rt_info>
				<attribute name="decompression" version="0" />
			</rt_info>
			<input>
				<port id="0" precision="FP16">
					<dim>1</dim>
					<dim>128</dim>
					<dim>1</dim>
					<dim>1</dim>
				</port>
			</input>
			<output>
				<port id="1" precision="FP32">
					<dim>1</dim>
					<dim>128</dim>
					<dim>1</dim>
					<dim>1</dim>
				</port>
			</output>
		</layer>
		<layer id="234" name="/model.9/cv1/conv/Conv" type="Add" version="opset1">
			<data auto_broadcast="numpy" />
			<input>
				<port id="0" precision="FP32">
					<dim>1</dim>
					<dim>128</dim>
					<dim>20</dim>
					<dim>20</dim>
				</port>
				<port id="1" precision="FP32">
					<dim>1</dim>
					<dim>128</dim>
					<dim>1</dim>
					<dim>1</dim>
				</port>
			</input>
			<output>
				<port id="2" precision="FP32" names="/model.9/cv1/conv/Conv_output_0">
					<dim>1</dim>
					<dim>128</dim>
					<dim>20</dim>
					<dim>20</dim>
				</port>
			</output>
		</layer>
		<layer id="235" name="/model.9/cv1/act/Mul" type="Swish" version="opset4">
			<input>
				<port id="0" precision="FP32">
					<dim>1</dim>
					<dim>128</dim>
					<dim>20</dim>
					<dim>20</dim>
				</port>
			</input>
			<output>
				<port id="1" precision="FP32" names="/model.9/cv1/act/Mul_output_0">
					<dim>1</dim>
					<dim>128</dim>
					<dim>20</dim>
					<dim>20</dim>
				</port>
			</output>
		</layer>
		<layer id="236" name="/model.9/m/MaxPool" type="MaxPool" version="opset8">
			<data strides="1, 1" dilations="1, 1" pads_begin="2, 2" pads_end="2, 2" kernel="5, 5" rounding_type="floor" auto_pad="explicit" index_element_type="i64" axis="0" />
			<input>
				<port id="0" precision="FP32">
					<dim>1</dim>
					<dim>128</dim>
					<dim>20</dim>
					<dim>20</dim>
				</port>
			</input>
			<output>
				<port id="1" precision="FP32" names="/model.9/m/MaxPool_output_0">
					<dim>1</dim>
					<dim>128</dim>
					<dim>20</dim>
					<dim>20</dim>
				</port>
				<port id="2" precision="I64">
					<dim>1</dim>
					<dim>128</dim>
					<dim>20</dim>
					<dim>20</dim>
				</port>
			</output>
		</layer>
		<layer id="237" name="/model.9/m_1/MaxPool" type="MaxPool" version="opset8">
			<data strides="1, 1" dilations="1, 1" pads_begin="2, 2" pads_end="2, 2" kernel="5, 5" rounding_type="floor" auto_pad="explicit" index_element_type="i64" axis="0" />
			<input>
				<port id="0" precision="FP32">
					<dim>1</dim>
					<dim>128</dim>
					<dim>20</dim>
					<dim>20</dim>
				</port>
			</input>
			<output>
				<port id="1" precision="FP32" names="/model.9/m_1/MaxPool_output_0">
					<dim>1</dim>
					<dim>128</dim>
					<dim>20</dim>
					<dim>20</dim>
				</port>
				<port id="2" precision="I64">
					<dim>1</dim>
					<dim>128</dim>
					<dim>20</dim>
					<dim>20</dim>
				</port>
			</output>
		</layer>
		<layer id="238" name="/model.9/m_2/MaxPool" type="MaxPool" version="opset8">
			<data strides="1, 1" dilations="1, 1" pads_begin="2, 2" pads_end="2, 2" kernel="5, 5" rounding_type="floor" auto_pad="explicit" index_element_type="i64" axis="0" />
			<input>
				<port id="0" precision="FP32">
					<dim>1</dim>
					<dim>128</dim>
					<dim>20</dim>
					<dim>20</dim>
				</port>
			</input>
			<output>
				<port id="1" precision="FP32" names="/model.9/m_2/MaxPool_output_0">
					<dim>1</dim>
					<dim>128</dim>
					<dim>20</dim>
					<dim>20</dim>
				</port>
				<port id="2" precision="I64">
					<dim>1</dim>
					<dim>128</dim>
					<dim>20</dim>
					<dim>20</dim>
				</port>
			</output>
		</layer>
		<layer id="239" name="/model.9/Concat" type="Concat" version="opset1">
			<data axis="1" />
			<input>
				<port id="0" precision="FP32">
					<dim>1</dim>
					<dim>128</dim>
					<dim>20</dim>
					<dim>20</dim>
				</port>
				<port id="1" precision="FP32">
					<dim>1</dim>
					<dim>128</dim>
					<dim>20</dim>
					<dim>20</dim>
				</port>
				<port id="2" precision="FP32">
					<dim>1</dim>
					<dim>128</dim>
					<dim>20</dim>
					<dim>20</dim>
				</port>
				<port id="3" precision="FP32">
					<dim>1</dim>
					<dim>128</dim>
					<dim>20</dim>
					<dim>20</dim>
				</port>
			</input>
			<output>
				<port id="4" precision="FP32" names="/model.9/Concat_output_0">
					<dim>1</dim>
					<dim>512</dim>
					<dim>20</dim>
					<dim>20</dim>
				</port>
			</output>
		</layer>
		<layer id="240" name="model.9.cv2.conv.weight_compressed" type="Const" version="opset1">
			<data element_type="f16" shape="256, 512, 1, 1" offset="1824800" size="262144" />
			<output>
				<port id="0" precision="FP16">
					<dim>256</dim>
					<dim>512</dim>
					<dim>1</dim>
					<dim>1</dim>
				</port>
			</output>
		</layer>
		<layer id="241" name="model.9.cv2.conv.weight" type="Convert" version="opset1">
			<data destination_type="f32" />
			<rt_info>
				<attribute name="decompression" version="0" />
			</rt_info>
			<input>
				<port id="0" precision="FP16">
					<dim>256</dim>
					<dim>512</dim>
					<dim>1</dim>
					<dim>1</dim>
				</port>
			</input>
			<output>
				<port id="1" precision="FP32" names="model.9.cv2.conv.weight">
					<dim>256</dim>
					<dim>512</dim>
					<dim>1</dim>
					<dim>1</dim>
				</port>
			</output>
		</layer>
		<layer id="242" name="/model.9/cv2/conv/Conv/WithoutBiases" type="Convolution" version="opset1">
			<data strides="1, 1" dilations="1, 1" pads_begin="0, 0" pads_end="0, 0" auto_pad="explicit" />
			<input>
				<port id="0" precision="FP32">
					<dim>1</dim>
					<dim>512</dim>
					<dim>20</dim>
					<dim>20</dim>
				</port>
				<port id="1" precision="FP32">
					<dim>256</dim>
					<dim>512</dim>
					<dim>1</dim>
					<dim>1</dim>
				</port>
			</input>
			<output>
				<port id="2" precision="FP32">
					<dim>1</dim>
					<dim>256</dim>
					<dim>20</dim>
					<dim>20</dim>
				</port>
			</output>
		</layer>
		<layer id="243" name="Reshape_710_compressed" type="Const" version="opset1">
			<data element_type="f16" shape="1, 256, 1, 1" offset="2086944" size="512" />
			<output>
				<port id="0" precision="FP16">
					<dim>1</dim>
					<dim>256</dim>
					<dim>1</dim>
					<dim>1</dim>
				</port>
			</output>
		</layer>
		<layer id="244" name="Reshape_710" type="Convert" version="opset1">
			<data destination_type="f32" />
			<rt_info>
				<attribute name="decompression" version="0" />
			</rt_info>
			<input>
				<port id="0" precision="FP16">
					<dim>1</dim>
					<dim>256</dim>
					<dim>1</dim>
					<dim>1</dim>
				</port>
			</input>
			<output>
				<port id="1" precision="FP32">
					<dim>1</dim>
					<dim>256</dim>
					<dim>1</dim>
					<dim>1</dim>
				</port>
			</output>
		</layer>
		<layer id="245" name="/model.9/cv2/conv/Conv" type="Add" version="opset1">
			<data auto_broadcast="numpy" />
			<input>
				<port id="0" precision="FP32">
					<dim>1</dim>
					<dim>256</dim>
					<dim>20</dim>
					<dim>20</dim>
				</port>
				<port id="1" precision="FP32">
					<dim>1</dim>
					<dim>256</dim>
					<dim>1</dim>
					<dim>1</dim>
				</port>
			</input>
			<output>
				<port id="2" precision="FP32" names="/model.9/cv2/conv/Conv_output_0">
					<dim>1</dim>
					<dim>256</dim>
					<dim>20</dim>
					<dim>20</dim>
				</port>
			</output>
		</layer>
		<layer id="246" name="/model.9/cv2/act/Mul" type="Swish" version="opset4">
			<input>
				<port id="0" precision="FP32">
					<dim>1</dim>
					<dim>256</dim>
					<dim>20</dim>
					<dim>20</dim>
				</port>
			</input>
			<output>
				<port id="1" precision="FP32" names="/model.9/cv2/act/Mul_output_0">
					<dim>1</dim>
					<dim>256</dim>
					<dim>20</dim>
					<dim>20</dim>
				</port>
			</output>
		</layer>
		<layer id="247" name="model.10.conv.weight_compressed" type="Const" version="opset1">
			<data element_type="f16" shape="128, 256, 1, 1" offset="2087456" size="65536" />
			<output>
				<port id="0" precision="FP16">
					<dim>128</dim>
					<dim>256</dim>
					<dim>1</dim>
					<dim>1</dim>
				</port>
			</output>
		</layer>
		<layer id="248" name="model.10.conv.weight" type="Convert" version="opset1">
			<data destination_type="f32" />
			<rt_info>
				<attribute name="decompression" version="0" />
			</rt_info>
			<input>
				<port id="0" precision="FP16">
					<dim>128</dim>
					<dim>256</dim>
					<dim>1</dim>
					<dim>1</dim>
				</port>
			</input>
			<output>
				<port id="1" precision="FP32" names="model.10.conv.weight">
					<dim>128</dim>
					<dim>256</dim>
					<dim>1</dim>
					<dim>1</dim>
				</port>
			</output>
		</layer>
		<layer id="249" name="/model.10/conv/Conv/WithoutBiases" type="Convolution" version="opset1">
			<data strides="1, 1" dilations="1, 1" pads_begin="0, 0" pads_end="0, 0" auto_pad="explicit" />
			<input>
				<port id="0" precision="FP32">
					<dim>1</dim>
					<dim>256</dim>
					<dim>20</dim>
					<dim>20</dim>
				</port>
				<port id="1" precision="FP32">
					<dim>128</dim>
					<dim>256</dim>
					<dim>1</dim>
					<dim>1</dim>
				</port>
			</input>
			<output>
				<port id="2" precision="FP32">
					<dim>1</dim>
					<dim>128</dim>
					<dim>20</dim>
					<dim>20</dim>
				</port>
			</output>
		</layer>
		<layer id="250" name="Reshape_727_compressed" type="Const" version="opset1">
			<data element_type="f16" shape="1, 128, 1, 1" offset="2152992" size="256" />
			<output>
				<port id="0" precision="FP16">
					<dim>1</dim>
					<dim>128</dim>
					<dim>1</dim>
					<dim>1</dim>
				</port>
			</output>
		</layer>
		<layer id="251" name="Reshape_727" type="Convert" version="opset1">
			<data destination_type="f32" />
			<rt_info>
				<attribute name="decompression" version="0" />
			</rt_info>
			<input>
				<port id="0" precision="FP16">
					<dim>1</dim>
					<dim>128</dim>
					<dim>1</dim>
					<dim>1</dim>
				</port>
			</input>
			<output>
				<port id="1" precision="FP32">
					<dim>1</dim>
					<dim>128</dim>
					<dim>1</dim>
					<dim>1</dim>
				</port>
			</output>
		</layer>
		<layer id="252" name="/model.10/conv/Conv" type="Add" version="opset1">
			<data auto_broadcast="numpy" />
			<input>
				<port id="0" precision="FP32">
					<dim>1</dim>
					<dim>128</dim>
					<dim>20</dim>
					<dim>20</dim>
				</port>
				<port id="1" precision="FP32">
					<dim>1</dim>
					<dim>128</dim>
					<dim>1</dim>
					<dim>1</dim>
				</port>
			</input>
			<output>
				<port id="2" precision="FP32" names="/model.10/conv/Conv_output_0">
					<dim>1</dim>
					<dim>128</dim>
					<dim>20</dim>
					<dim>20</dim>
				</port>
			</output>
		</layer>
		<layer id="253" name="/model.10/act/Mul" type="Swish" version="opset4">
			<input>
				<port id="0" precision="FP32">
					<dim>1</dim>
					<dim>128</dim>
					<dim>20</dim>
					<dim>20</dim>
				</port>
			</input>
			<output>
				<port id="1" precision="FP32" names="/model.10/act/Mul_output_0">
					<dim>1</dim>
					<dim>128</dim>
					<dim>20</dim>
					<dim>20</dim>
				</port>
			</output>
		</layer>
		<layer id="254" name="/model.11/Constant_output_0" type="Const" version="opset1">
			<data element_type="f32" shape="4" offset="2153248" size="16" />
			<output>
				<port id="0" precision="FP32" names="/model.11/Constant_output_0">
					<dim>4</dim>
				</port>
			</output>
		</layer>
		<layer id="255" name="/model.11/Resize" type="Interpolate" version="opset11">
			<data mode="nearest" shape_calculation_mode="scales" coordinate_transformation_mode="asymmetric" nearest_mode="floor" antialias="false" pads_begin="0, 0, 0, 0" pads_end="0, 0, 0, 0" cube_coeff="-0.75" />
			<input>
				<port id="0" precision="FP32">
					<dim>1</dim>
					<dim>128</dim>
					<dim>20</dim>
					<dim>20</dim>
				</port>
				<port id="1" precision="FP32">
					<dim>4</dim>
				</port>
			</input>
			<output>
				<port id="2" precision="FP32" names="/model.11/Resize_output_0">
					<dim>1</dim>
					<dim>128</dim>
					<dim>40</dim>
					<dim>40</dim>
				</port>
			</output>
		</layer>
		<layer id="256" name="/model.12/Concat" type="Concat" version="opset1">
			<data axis="1" />
			<input>
				<port id="0" precision="FP32">
					<dim>1</dim>
					<dim>128</dim>
					<dim>40</dim>
					<dim>40</dim>
				</port>
				<port id="1" precision="FP32">
					<dim>1</dim>
					<dim>128</dim>
					<dim>40</dim>
					<dim>40</dim>
				</port>
			</input>
			<output>
				<port id="2" precision="FP32" names="/model.12/Concat_output_0">
					<dim>1</dim>
					<dim>256</dim>
					<dim>40</dim>
					<dim>40</dim>
				</port>
			</output>
		</layer>
		<layer id="257" name="model.13.cv1.conv.weight_compressed" type="Const" version="opset1">
			<data element_type="f16" shape="64, 256, 1, 1" offset="2153264" size="32768" />
			<output>
				<port id="0" precision="FP16">
					<dim>64</dim>
					<dim>256</dim>
					<dim>1</dim>
					<dim>1</dim>
				</port>
			</output>
		</layer>
		<layer id="258" name="model.13.cv1.conv.weight" type="Convert" version="opset1">
			<data destination_type="f32" />
			<rt_info>
				<attribute name="decompression" version="0" />
			</rt_info>
			<input>
				<port id="0" precision="FP16">
					<dim>64</dim>
					<dim>256</dim>
					<dim>1</dim>
					<dim>1</dim>
				</port>
			</input>
			<output>
				<port id="1" precision="FP32" names="model.13.cv1.conv.weight">
					<dim>64</dim>
					<dim>256</dim>
					<dim>1</dim>
					<dim>1</dim>
				</port>
			</output>
		</layer>
		<layer id="259" name="/model.13/cv1/conv/Conv/WithoutBiases" type="Convolution" version="opset1">
			<data strides="1, 1" dilations="1, 1" pads_begin="0, 0" pads_end="0, 0" auto_pad="explicit" />
			<input>
				<port id="0" precision="FP32">
					<dim>1</dim>
					<dim>256</dim>
					<dim>40</dim>
					<dim>40</dim>
				</port>
				<port id="1" precision="FP32">
					<dim>64</dim>
					<dim>256</dim>
					<dim>1</dim>
					<dim>1</dim>
				</port>
			</input>
			<output>
				<port id="2" precision="FP32">
					<dim>1</dim>
					<dim>64</dim>
					<dim>40</dim>
					<dim>40</dim>
				</port>
			</output>
		</layer>
		<layer id="260" name="Reshape_747_compressed" type="Const" version="opset1">
			<data element_type="f16" shape="1, 64, 1, 1" offset="2186032" size="128" />
			<output>
				<port id="0" precision="FP16">
					<dim>1</dim>
					<dim>64</dim>
					<dim>1</dim>
					<dim>1</dim>
				</port>
			</output>
		</layer>
		<layer id="261" name="Reshape_747" type="Convert" version="opset1">
			<data destination_type="f32" />
			<rt_info>
				<attribute name="decompression" version="0" />
			</rt_info>
			<input>
				<port id="0" precision="FP16">
					<dim>1</dim>
					<dim>64</dim>
					<dim>1</dim>
					<dim>1</dim>
				</port>
			</input>
			<output>
				<port id="1" precision="FP32">
					<dim>1</dim>
					<dim>64</dim>
					<dim>1</dim>
					<dim>1</dim>
				</port>
			</output>
		</layer>
		<layer id="262" name="/model.13/cv1/conv/Conv" type="Add" version="opset1">
			<data auto_broadcast="numpy" />
			<input>
				<port id="0" precision="FP32">
					<dim>1</dim>
					<dim>64</dim>
					<dim>40</dim>
					<dim>40</dim>
				</port>
				<port id="1" precision="FP32">
					<dim>1</dim>
					<dim>64</dim>
					<dim>1</dim>
					<dim>1</dim>
				</port>
			</input>
			<output>
				<port id="2" precision="FP32" names="/model.13/cv1/conv/Conv_output_0">
					<dim>1</dim>
					<dim>64</dim>
					<dim>40</dim>
					<dim>40</dim>
				</port>
			</output>
		</layer>
		<layer id="263" name="/model.13/cv1/act/Mul" type="Swish" version="opset4">
			<input>
				<port id="0" precision="FP32">
					<dim>1</dim>
					<dim>64</dim>
					<dim>40</dim>
					<dim>40</dim>
				</port>
			</input>
			<output>
				<port id="1" precision="FP32" names="/model.13/cv1/act/Mul_output_0">
					<dim>1</dim>
					<dim>64</dim>
					<dim>40</dim>
					<dim>40</dim>
				</port>
			</output>
		</layer>
		<layer id="264" name="model.13.m.0.cv1.conv.weight_compressed" type="Const" version="opset1">
			<data element_type="f16" shape="64, 64, 1, 1" offset="2186160" size="8192" />
			<output>
				<port id="0" precision="FP16">
					<dim>64</dim>
					<dim>64</dim>
					<dim>1</dim>
					<dim>1</dim>
				</port>
			</output>
		</layer>
		<layer id="265" name="model.13.m.0.cv1.conv.weight" type="Convert" version="opset1">
			<data destination_type="f32" />
			<rt_info>
				<attribute name="decompression" version="0" />
			</rt_info>
			<input>
				<port id="0" precision="FP16">
					<dim>64</dim>
					<dim>64</dim>
					<dim>1</dim>
					<dim>1</dim>
				</port>
			</input>
			<output>
				<port id="1" precision="FP32" names="model.13.m.0.cv1.conv.weight">
					<dim>64</dim>
					<dim>64</dim>
					<dim>1</dim>
					<dim>1</dim>
				</port>
			</output>
		</layer>
		<layer id="266" name="/model.13/m/m.0/cv1/conv/Conv/WithoutBiases" type="Convolution" version="opset1">
			<data strides="1, 1" dilations="1, 1" pads_begin="0, 0" pads_end="0, 0" auto_pad="explicit" />
			<input>
				<port id="0" precision="FP32">
					<dim>1</dim>
					<dim>64</dim>
					<dim>40</dim>
					<dim>40</dim>
				</port>
				<port id="1" precision="FP32">
					<dim>64</dim>
					<dim>64</dim>
					<dim>1</dim>
					<dim>1</dim>
				</port>
			</input>
			<output>
				<port id="2" precision="FP32">
					<dim>1</dim>
					<dim>64</dim>
					<dim>40</dim>
					<dim>40</dim>
				</port>
			</output>
		</layer>
		<layer id="267" name="Reshape_764_compressed" type="Const" version="opset1">
			<data element_type="f16" shape="1, 64, 1, 1" offset="2194352" size="128" />
			<output>
				<port id="0" precision="FP16">
					<dim>1</dim>
					<dim>64</dim>
					<dim>1</dim>
					<dim>1</dim>
				</port>
			</output>
		</layer>
		<layer id="268" name="Reshape_764" type="Convert" version="opset1">
			<data destination_type="f32" />
			<rt_info>
				<attribute name="decompression" version="0" />
			</rt_info>
			<input>
				<port id="0" precision="FP16">
					<dim>1</dim>
					<dim>64</dim>
					<dim>1</dim>
					<dim>1</dim>
				</port>
			</input>
			<output>
				<port id="1" precision="FP32">
					<dim>1</dim>
					<dim>64</dim>
					<dim>1</dim>
					<dim>1</dim>
				</port>
			</output>
		</layer>
		<layer id="269" name="/model.13/m/m.0/cv1/conv/Conv" type="Add" version="opset1">
			<data auto_broadcast="numpy" />
			<input>
				<port id="0" precision="FP32">
					<dim>1</dim>
					<dim>64</dim>
					<dim>40</dim>
					<dim>40</dim>
				</port>
				<port id="1" precision="FP32">
					<dim>1</dim>
					<dim>64</dim>
					<dim>1</dim>
					<dim>1</dim>
				</port>
			</input>
			<output>
				<port id="2" precision="FP32" names="/model.13/m/m.0/cv1/conv/Conv_output_0">
					<dim>1</dim>
					<dim>64</dim>
					<dim>40</dim>
					<dim>40</dim>
				</port>
			</output>
		</layer>
		<layer id="270" name="/model.13/m/m.0/cv1/act/Mul" type="Swish" version="opset4">
			<input>
				<port id="0" precision="FP32">
					<dim>1</dim>
					<dim>64</dim>
					<dim>40</dim>
					<dim>40</dim>
				</port>
			</input>
			<output>
				<port id="1" precision="FP32" names="/model.13/m/m.0/cv1/act/Mul_output_0">
					<dim>1</dim>
					<dim>64</dim>
					<dim>40</dim>
					<dim>40</dim>
				</port>
			</output>
		</layer>
		<layer id="271" name="model.13.m.0.cv2.conv.weight_compressed" type="Const" version="opset1">
			<data element_type="f16" shape="64, 64, 3, 3" offset="2194480" size="73728" />
			<output>
				<port id="0" precision="FP16">
					<dim>64</dim>
					<dim>64</dim>
					<dim>3</dim>
					<dim>3</dim>
				</port>
			</output>
		</layer>
		<layer id="272" name="model.13.m.0.cv2.conv.weight" type="Convert" version="opset1">
			<data destination_type="f32" />
			<rt_info>
				<attribute name="decompression" version="0" />
			</rt_info>
			<input>
				<port id="0" precision="FP16">
					<dim>64</dim>
					<dim>64</dim>
					<dim>3</dim>
					<dim>3</dim>
				</port>
			</input>
			<output>
				<port id="1" precision="FP32" names="model.13.m.0.cv2.conv.weight">
					<dim>64</dim>
					<dim>64</dim>
					<dim>3</dim>
					<dim>3</dim>
				</port>
			</output>
		</layer>
		<layer id="273" name="/model.13/m/m.0/cv2/conv/Conv/WithoutBiases" type="Convolution" version="opset1">
			<data strides="1, 1" dilations="1, 1" pads_begin="1, 1" pads_end="1, 1" auto_pad="explicit" />
			<input>
				<port id="0" precision="FP32">
					<dim>1</dim>
					<dim>64</dim>
					<dim>40</dim>
					<dim>40</dim>
				</port>
				<port id="1" precision="FP32">
					<dim>64</dim>
					<dim>64</dim>
					<dim>3</dim>
					<dim>3</dim>
				</port>
			</input>
			<output>
				<port id="2" precision="FP32">
					<dim>1</dim>
					<dim>64</dim>
					<dim>40</dim>
					<dim>40</dim>
				</port>
			</output>
		</layer>
		<layer id="274" name="Reshape_781_compressed" type="Const" version="opset1">
			<data element_type="f16" shape="1, 64, 1, 1" offset="2268208" size="128" />
			<output>
				<port id="0" precision="FP16">
					<dim>1</dim>
					<dim>64</dim>
					<dim>1</dim>
					<dim>1</dim>
				</port>
			</output>
		</layer>
		<layer id="275" name="Reshape_781" type="Convert" version="opset1">
			<data destination_type="f32" />
			<rt_info>
				<attribute name="decompression" version="0" />
			</rt_info>
			<input>
				<port id="0" precision="FP16">
					<dim>1</dim>
					<dim>64</dim>
					<dim>1</dim>
					<dim>1</dim>
				</port>
			</input>
			<output>
				<port id="1" precision="FP32">
					<dim>1</dim>
					<dim>64</dim>
					<dim>1</dim>
					<dim>1</dim>
				</port>
			</output>
		</layer>
		<layer id="276" name="/model.13/m/m.0/cv2/conv/Conv" type="Add" version="opset1">
			<data auto_broadcast="numpy" />
			<input>
				<port id="0" precision="FP32">
					<dim>1</dim>
					<dim>64</dim>
					<dim>40</dim>
					<dim>40</dim>
				</port>
				<port id="1" precision="FP32">
					<dim>1</dim>
					<dim>64</dim>
					<dim>1</dim>
					<dim>1</dim>
				</port>
			</input>
			<output>
				<port id="2" precision="FP32" names="/model.13/m/m.0/cv2/conv/Conv_output_0">
					<dim>1</dim>
					<dim>64</dim>
					<dim>40</dim>
					<dim>40</dim>
				</port>
			</output>
		</layer>
		<layer id="277" name="/model.13/m/m.0/cv2/act/Mul" type="Swish" version="opset4">
			<input>
				<port id="0" precision="FP32">
					<dim>1</dim>
					<dim>64</dim>
					<dim>40</dim>
					<dim>40</dim>
				</port>
			</input>
			<output>
				<port id="1" precision="FP32" names="/model.13/m/m.0/cv2/act/Mul_output_0">
					<dim>1</dim>
					<dim>64</dim>
					<dim>40</dim>
					<dim>40</dim>
				</port>
			</output>
		</layer>
		<layer id="278" name="model.13.cv2.conv.weight_compressed" type="Const" version="opset1">
			<data element_type="f16" shape="64, 256, 1, 1" offset="2268336" size="32768" />
			<output>
				<port id="0" precision="FP16">
					<dim>64</dim>
					<dim>256</dim>
					<dim>1</dim>
					<dim>1</dim>
				</port>
			</output>
		</layer>
		<layer id="279" name="model.13.cv2.conv.weight" type="Convert" version="opset1">
			<data destination_type="f32" />
			<rt_info>
				<attribute name="decompression" version="0" />
			</rt_info>
			<input>
				<port id="0" precision="FP16">
					<dim>64</dim>
					<dim>256</dim>
					<dim>1</dim>
					<dim>1</dim>
				</port>
			</input>
			<output>
				<port id="1" precision="FP32" names="model.13.cv2.conv.weight">
					<dim>64</dim>
					<dim>256</dim>
					<dim>1</dim>
					<dim>1</dim>
				</port>
			</output>
		</layer>
		<layer id="280" name="/model.13/cv2/conv/Conv/WithoutBiases" type="Convolution" version="opset1">
			<data strides="1, 1" dilations="1, 1" pads_begin="0, 0" pads_end="0, 0" auto_pad="explicit" />
			<input>
				<port id="0" precision="FP32">
					<dim>1</dim>
					<dim>256</dim>
					<dim>40</dim>
					<dim>40</dim>
				</port>
				<port id="1" precision="FP32">
					<dim>64</dim>
					<dim>256</dim>
					<dim>1</dim>
					<dim>1</dim>
				</port>
			</input>
			<output>
				<port id="2" precision="FP32">
					<dim>1</dim>
					<dim>64</dim>
					<dim>40</dim>
					<dim>40</dim>
				</port>
			</output>
		</layer>
		<layer id="281" name="Reshape_798_compressed" type="Const" version="opset1">
			<data element_type="f16" shape="1, 64, 1, 1" offset="2301104" size="128" />
			<output>
				<port id="0" precision="FP16">
					<dim>1</dim>
					<dim>64</dim>
					<dim>1</dim>
					<dim>1</dim>
				</port>
			</output>
		</layer>
		<layer id="282" name="Reshape_798" type="Convert" version="opset1">
			<data destination_type="f32" />
			<rt_info>
				<attribute name="decompression" version="0" />
			</rt_info>
			<input>
				<port id="0" precision="FP16">
					<dim>1</dim>
					<dim>64</dim>
					<dim>1</dim>
					<dim>1</dim>
				</port>
			</input>
			<output>
				<port id="1" precision="FP32">
					<dim>1</dim>
					<dim>64</dim>
					<dim>1</dim>
					<dim>1</dim>
				</port>
			</output>
		</layer>
		<layer id="283" name="/model.13/cv2/conv/Conv" type="Add" version="opset1">
			<data auto_broadcast="numpy" />
			<input>
				<port id="0" precision="FP32">
					<dim>1</dim>
					<dim>64</dim>
					<dim>40</dim>
					<dim>40</dim>
				</port>
				<port id="1" precision="FP32">
					<dim>1</dim>
					<dim>64</dim>
					<dim>1</dim>
					<dim>1</dim>
				</port>
			</input>
			<output>
				<port id="2" precision="FP32" names="/model.13/cv2/conv/Conv_output_0">
					<dim>1</dim>
					<dim>64</dim>
					<dim>40</dim>
					<dim>40</dim>
				</port>
			</output>
		</layer>
		<layer id="284" name="/model.13/cv2/act/Mul" type="Swish" version="opset4">
			<input>
				<port id="0" precision="FP32">
					<dim>1</dim>
					<dim>64</dim>
					<dim>40</dim>
					<dim>40</dim>
				</port>
			</input>
			<output>
				<port id="1" precision="FP32" names="/model.13/cv2/act/Mul_output_0">
					<dim>1</dim>
					<dim>64</dim>
					<dim>40</dim>
					<dim>40</dim>
				</port>
			</output>
		</layer>
		<layer id="285" name="/model.13/Concat" type="Concat" version="opset1">
			<data axis="1" />
			<input>
				<port id="0" precision="FP32">
					<dim>1</dim>
					<dim>64</dim>
					<dim>40</dim>
					<dim>40</dim>
				</port>
				<port id="1" precision="FP32">
					<dim>1</dim>
					<dim>64</dim>
					<dim>40</dim>
					<dim>40</dim>
				</port>
			</input>
			<output>
				<port id="2" precision="FP32" names="/model.13/Concat_output_0">
					<dim>1</dim>
					<dim>128</dim>
					<dim>40</dim>
					<dim>40</dim>
				</port>
			</output>
		</layer>
		<layer id="286" name="model.13.cv3.conv.weight_compressed" type="Const" version="opset1">
			<data element_type="f16" shape="128, 128, 1, 1" offset="2301232" size="32768" />
			<output>
				<port id="0" precision="FP16">
					<dim>128</dim>
					<dim>128</dim>
					<dim>1</dim>
					<dim>1</dim>
				</port>
			</output>
		</layer>
		<layer id="287" name="model.13.cv3.conv.weight" type="Convert" version="opset1">
			<data destination_type="f32" />
			<rt_info>
				<attribute name="decompression" version="0" />
			</rt_info>
			<input>
				<port id="0" precision="FP16">
					<dim>128</dim>
					<dim>128</dim>
					<dim>1</dim>
					<dim>1</dim>
				</port>
			</input>
			<output>
				<port id="1" precision="FP32" names="model.13.cv3.conv.weight">
					<dim>128</dim>
					<dim>128</dim>
					<dim>1</dim>
					<dim>1</dim>
				</port>
			</output>
		</layer>
		<layer id="288" name="/model.13/cv3/conv/Conv/WithoutBiases" type="Convolution" version="opset1">
			<data strides="1, 1" dilations="1, 1" pads_begin="0, 0" pads_end="0, 0" auto_pad="explicit" />
			<input>
				<port id="0" precision="FP32">
					<dim>1</dim>
					<dim>128</dim>
					<dim>40</dim>
					<dim>40</dim>
				</port>
				<port id="1" precision="FP32">
					<dim>128</dim>
					<dim>128</dim>
					<dim>1</dim>
					<dim>1</dim>
				</port>
			</input>
			<output>
				<port id="2" precision="FP32">
					<dim>1</dim>
					<dim>128</dim>
					<dim>40</dim>
					<dim>40</dim>
				</port>
			</output>
		</layer>
		<layer id="289" name="Reshape_816_compressed" type="Const" version="opset1">
			<data element_type="f16" shape="1, 128, 1, 1" offset="2334000" size="256" />
			<output>
				<port id="0" precision="FP16">
					<dim>1</dim>
					<dim>128</dim>
					<dim>1</dim>
					<dim>1</dim>
				</port>
			</output>
		</layer>
		<layer id="290" name="Reshape_816" type="Convert" version="opset1">
			<data destination_type="f32" />
			<rt_info>
				<attribute name="decompression" version="0" />
			</rt_info>
			<input>
				<port id="0" precision="FP16">
					<dim>1</dim>
					<dim>128</dim>
					<dim>1</dim>
					<dim>1</dim>
				</port>
			</input>
			<output>
				<port id="1" precision="FP32">
					<dim>1</dim>
					<dim>128</dim>
					<dim>1</dim>
					<dim>1</dim>
				</port>
			</output>
		</layer>
		<layer id="291" name="/model.13/cv3/conv/Conv" type="Add" version="opset1">
			<data auto_broadcast="numpy" />
			<input>
				<port id="0" precision="FP32">
					<dim>1</dim>
					<dim>128</dim>
					<dim>40</dim>
					<dim>40</dim>
				</port>
				<port id="1" precision="FP32">
					<dim>1</dim>
					<dim>128</dim>
					<dim>1</dim>
					<dim>1</dim>
				</port>
			</input>
			<output>
				<port id="2" precision="FP32" names="/model.13/cv3/conv/Conv_output_0">
					<dim>1</dim>
					<dim>128</dim>
					<dim>40</dim>
					<dim>40</dim>
				</port>
			</output>
		</layer>
		<layer id="292" name="/model.13/cv3/act/Mul" type="Swish" version="opset4">
			<input>
				<port id="0" precision="FP32">
					<dim>1</dim>
					<dim>128</dim>
					<dim>40</dim>
					<dim>40</dim>
				</port>
			</input>
			<output>
				<port id="1" precision="FP32" names="/model.13/cv3/act/Mul_output_0">
					<dim>1</dim>
					<dim>128</dim>
					<dim>40</dim>
					<dim>40</dim>
				</port>
			</output>
		</layer>
		<layer id="293" name="model.14.conv.weight_compressed" type="Const" version="opset1">
			<data element_type="f16" shape="64, 128, 1, 1" offset="2334256" size="16384" />
			<output>
				<port id="0" precision="FP16">
					<dim>64</dim>
					<dim>128</dim>
					<dim>1</dim>
					<dim>1</dim>
				</port>
			</output>
		</layer>
		<layer id="294" name="model.14.conv.weight" type="Convert" version="opset1">
			<data destination_type="f32" />
			<rt_info>
				<attribute name="decompression" version="0" />
			</rt_info>
			<input>
				<port id="0" precision="FP16">
					<dim>64</dim>
					<dim>128</dim>
					<dim>1</dim>
					<dim>1</dim>
				</port>
			</input>
			<output>
				<port id="1" precision="FP32" names="model.14.conv.weight">
					<dim>64</dim>
					<dim>128</dim>
					<dim>1</dim>
					<dim>1</dim>
				</port>
			</output>
		</layer>
		<layer id="295" name="/model.14/conv/Conv/WithoutBiases" type="Convolution" version="opset1">
			<data strides="1, 1" dilations="1, 1" pads_begin="0, 0" pads_end="0, 0" auto_pad="explicit" />
			<input>
				<port id="0" precision="FP32">
					<dim>1</dim>
					<dim>128</dim>
					<dim>40</dim>
					<dim>40</dim>
				</port>
				<port id="1" precision="FP32">
					<dim>64</dim>
					<dim>128</dim>
					<dim>1</dim>
					<dim>1</dim>
				</port>
			</input>
			<output>
				<port id="2" precision="FP32">
					<dim>1</dim>
					<dim>64</dim>
					<dim>40</dim>
					<dim>40</dim>
				</port>
			</output>
		</layer>
		<layer id="296" name="Reshape_833_compressed" type="Const" version="opset1">
			<data element_type="f16" shape="1, 64, 1, 1" offset="2350640" size="128" />
			<output>
				<port id="0" precision="FP16">
					<dim>1</dim>
					<dim>64</dim>
					<dim>1</dim>
					<dim>1</dim>
				</port>
			</output>
		</layer>
		<layer id="297" name="Reshape_833" type="Convert" version="opset1">
			<data destination_type="f32" />
			<rt_info>
				<attribute name="decompression" version="0" />
			</rt_info>
			<input>
				<port id="0" precision="FP16">
					<dim>1</dim>
					<dim>64</dim>
					<dim>1</dim>
					<dim>1</dim>
				</port>
			</input>
			<output>
				<port id="1" precision="FP32">
					<dim>1</dim>
					<dim>64</dim>
					<dim>1</dim>
					<dim>1</dim>
				</port>
			</output>
		</layer>
		<layer id="298" name="/model.14/conv/Conv" type="Add" version="opset1">
			<data auto_broadcast="numpy" />
			<input>
				<port id="0" precision="FP32">
					<dim>1</dim>
					<dim>64</dim>
					<dim>40</dim>
					<dim>40</dim>
				</port>
				<port id="1" precision="FP32">
					<dim>1</dim>
					<dim>64</dim>
					<dim>1</dim>
					<dim>1</dim>
				</port>
			</input>
			<output>
				<port id="2" precision="FP32" names="/model.14/conv/Conv_output_0">
					<dim>1</dim>
					<dim>64</dim>
					<dim>40</dim>
					<dim>40</dim>
				</port>
			</output>
		</layer>
		<layer id="299" name="/model.14/act/Mul" type="Swish" version="opset4">
			<input>
				<port id="0" precision="FP32">
					<dim>1</dim>
					<dim>64</dim>
					<dim>40</dim>
					<dim>40</dim>
				</port>
			</input>
			<output>
				<port id="1" precision="FP32" names="/model.14/act/Mul_output_0">
					<dim>1</dim>
					<dim>64</dim>
					<dim>40</dim>
					<dim>40</dim>
				</port>
			</output>
		</layer>
		<layer id="300" name="/model.15/Resize" type="Interpolate" version="opset11">
			<data mode="nearest" shape_calculation_mode="scales" coordinate_transformation_mode="asymmetric" nearest_mode="floor" antialias="false" pads_begin="0, 0, 0, 0" pads_end="0, 0, 0, 0" cube_coeff="-0.75" />
			<input>
				<port id="0" precision="FP32">
					<dim>1</dim>
					<dim>64</dim>
					<dim>40</dim>
					<dim>40</dim>
				</port>
				<port id="1" precision="FP32">
					<dim>4</dim>
				</port>
			</input>
			<output>
				<port id="2" precision="FP32" names="/model.15/Resize_output_0">
					<dim>1</dim>
					<dim>64</dim>
					<dim>80</dim>
					<dim>80</dim>
				</port>
			</output>
		</layer>
		<layer id="301" name="/model.16/Concat" type="Concat" version="opset1">
			<data axis="1" />
			<input>
				<port id="0" precision="FP32">
					<dim>1</dim>
					<dim>64</dim>
					<dim>80</dim>
					<dim>80</dim>
				</port>
				<port id="1" precision="FP32">
					<dim>1</dim>
					<dim>64</dim>
					<dim>80</dim>
					<dim>80</dim>
				</port>
			</input>
			<output>
				<port id="2" precision="FP32" names="/model.16/Concat_output_0">
					<dim>1</dim>
					<dim>128</dim>
					<dim>80</dim>
					<dim>80</dim>
				</port>
			</output>
		</layer>
		<layer id="302" name="model.17.cv1.conv.weight_compressed" type="Const" version="opset1">
			<data element_type="f16" shape="32, 128, 1, 1" offset="2350768" size="8192" />
			<output>
				<port id="0" precision="FP16">
					<dim>32</dim>
					<dim>128</dim>
					<dim>1</dim>
					<dim>1</dim>
				</port>
			</output>
		</layer>
		<layer id="303" name="model.17.cv1.conv.weight" type="Convert" version="opset1">
			<data destination_type="f32" />
			<rt_info>
				<attribute name="decompression" version="0" />
			</rt_info>
			<input>
				<port id="0" precision="FP16">
					<dim>32</dim>
					<dim>128</dim>
					<dim>1</dim>
					<dim>1</dim>
				</port>
			</input>
			<output>
				<port id="1" precision="FP32" names="model.17.cv1.conv.weight">
					<dim>32</dim>
					<dim>128</dim>
					<dim>1</dim>
					<dim>1</dim>
				</port>
			</output>
		</layer>
		<layer id="304" name="/model.17/cv1/conv/Conv/WithoutBiases" type="Convolution" version="opset1">
			<data strides="1, 1" dilations="1, 1" pads_begin="0, 0" pads_end="0, 0" auto_pad="explicit" />
			<input>
				<port id="0" precision="FP32">
					<dim>1</dim>
					<dim>128</dim>
					<dim>80</dim>
					<dim>80</dim>
				</port>
				<port id="1" precision="FP32">
					<dim>32</dim>
					<dim>128</dim>
					<dim>1</dim>
					<dim>1</dim>
				</port>
			</input>
			<output>
				<port id="2" precision="FP32">
					<dim>1</dim>
					<dim>32</dim>
					<dim>80</dim>
					<dim>80</dim>
				</port>
			</output>
		</layer>
		<layer id="305" name="Reshape_853_compressed" type="Const" version="opset1">
			<data element_type="f16" shape="1, 32, 1, 1" offset="2358960" size="64" />
			<output>
				<port id="0" precision="FP16">
					<dim>1</dim>
					<dim>32</dim>
					<dim>1</dim>
					<dim>1</dim>
				</port>
			</output>
		</layer>
		<layer id="306" name="Reshape_853" type="Convert" version="opset1">
			<data destination_type="f32" />
			<rt_info>
				<attribute name="decompression" version="0" />
			</rt_info>
			<input>
				<port id="0" precision="FP16">
					<dim>1</dim>
					<dim>32</dim>
					<dim>1</dim>
					<dim>1</dim>
				</port>
			</input>
			<output>
				<port id="1" precision="FP32">
					<dim>1</dim>
					<dim>32</dim>
					<dim>1</dim>
					<dim>1</dim>
				</port>
			</output>
		</layer>
		<layer id="307" name="/model.17/cv1/conv/Conv" type="Add" version="opset1">
			<data auto_broadcast="numpy" />
			<input>
				<port id="0" precision="FP32">
					<dim>1</dim>
					<dim>32</dim>
					<dim>80</dim>
					<dim>80</dim>
				</port>
				<port id="1" precision="FP32">
					<dim>1</dim>
					<dim>32</dim>
					<dim>1</dim>
					<dim>1</dim>
				</port>
			</input>
			<output>
				<port id="2" precision="FP32" names="/model.17/cv1/conv/Conv_output_0">
					<dim>1</dim>
					<dim>32</dim>
					<dim>80</dim>
					<dim>80</dim>
				</port>
			</output>
		</layer>
		<layer id="308" name="/model.17/cv1/act/Mul" type="Swish" version="opset4">
			<input>
				<port id="0" precision="FP32">
					<dim>1</dim>
					<dim>32</dim>
					<dim>80</dim>
					<dim>80</dim>
				</port>
			</input>
			<output>
				<port id="1" precision="FP32" names="/model.17/cv1/act/Mul_output_0">
					<dim>1</dim>
					<dim>32</dim>
					<dim>80</dim>
					<dim>80</dim>
				</port>
			</output>
		</layer>
		<layer id="309" name="model.17.m.0.cv1.conv.weight_compressed" type="Const" version="opset1">
			<data element_type="f16" shape="32, 32, 1, 1" offset="2359024" size="2048" />
			<output>
				<port id="0" precision="FP16">
					<dim>32</dim>
					<dim>32</dim>
					<dim>1</dim>
					<dim>1</dim>
				</port>
			</output>
		</layer>
		<layer id="310" name="model.17.m.0.cv1.conv.weight" type="Convert" version="opset1">
			<data destination_type="f32" />
			<rt_info>
				<attribute name="decompression" version="0" />
			</rt_info>
			<input>
				<port id="0" precision="FP16">
					<dim>32</dim>
					<dim>32</dim>
					<dim>1</dim>
					<dim>1</dim>
				</port>
			</input>
			<output>
				<port id="1" precision="FP32" names="model.17.m.0.cv1.conv.weight">
					<dim>32</dim>
					<dim>32</dim>
					<dim>1</dim>
					<dim>1</dim>
				</port>
			</output>
		</layer>
		<layer id="311" name="/model.17/m/m.0/cv1/conv/Conv/WithoutBiases" type="Convolution" version="opset1">
			<data strides="1, 1" dilations="1, 1" pads_begin="0, 0" pads_end="0, 0" auto_pad="explicit" />
			<input>
				<port id="0" precision="FP32">
					<dim>1</dim>
					<dim>32</dim>
					<dim>80</dim>
					<dim>80</dim>
				</port>
				<port id="1" precision="FP32">
					<dim>32</dim>
					<dim>32</dim>
					<dim>1</dim>
					<dim>1</dim>
				</port>
			</input>
			<output>
				<port id="2" precision="FP32">
					<dim>1</dim>
					<dim>32</dim>
					<dim>80</dim>
					<dim>80</dim>
				</port>
			</output>
		</layer>
		<layer id="312" name="Reshape_870_compressed" type="Const" version="opset1">
			<data element_type="f16" shape="1, 32, 1, 1" offset="2361072" size="64" />
			<output>
				<port id="0" precision="FP16">
					<dim>1</dim>
					<dim>32</dim>
					<dim>1</dim>
					<dim>1</dim>
				</port>
			</output>
		</layer>
		<layer id="313" name="Reshape_870" type="Convert" version="opset1">
			<data destination_type="f32" />
			<rt_info>
				<attribute name="decompression" version="0" />
			</rt_info>
			<input>
				<port id="0" precision="FP16">
					<dim>1</dim>
					<dim>32</dim>
					<dim>1</dim>
					<dim>1</dim>
				</port>
			</input>
			<output>
				<port id="1" precision="FP32">
					<dim>1</dim>
					<dim>32</dim>
					<dim>1</dim>
					<dim>1</dim>
				</port>
			</output>
		</layer>
		<layer id="314" name="/model.17/m/m.0/cv1/conv/Conv" type="Add" version="opset1">
			<data auto_broadcast="numpy" />
…
					<dim>3</dim>
					<dim>20</dim>
					<dim>20</dim>
					<dim>2</dim>
				</port>
				<port id="4" precision="FP32" names="/model.24/Split_2_output_1">
					<dim>1</dim>
					<dim>3</dim>
					<dim>20</dim>
					<dim>20</dim>
					<dim>2</dim>
				</port>
				<port id="5" precision="FP32" names="/model.24/Split_2_output_2">
					<dim>1</dim>
					<dim>3</dim>
					<dim>20</dim>
					<dim>20</dim>
					<dim>81</dim>
				</port>
			</output>
		</layer>
		<layer id="502" name="Constant_3197_compressed" type="Const" version="opset1">
			<data element_type="f16" shape="1, 1, 1, 1, 1" offset="3927072" size="2" />
			<output>
				<port id="0" precision="FP16">
					<dim>1</dim>
					<dim>1</dim>
					<dim>1</dim>
					<dim>1</dim>
					<dim>1</dim>
				</port>
			</output>
		</layer>
		<layer id="503" name="Constant_3197" type="Convert" version="opset1">
			<data destination_type="f32" />
			<rt_info>
				<attribute name="decompression" version="0" />
			</rt_info>
			<input>
				<port id="0" precision="FP16">
					<dim>1</dim>
					<dim>1</dim>
					<dim>1</dim>
					<dim>1</dim>
					<dim>1</dim>
				</port>
			</input>
			<output>
				<port id="1" precision="FP32">
					<dim>1</dim>
					<dim>1</dim>
					<dim>1</dim>
					<dim>1</dim>
					<dim>1</dim>
				</port>
			</output>
		</layer>
		<layer id="504" name="Multiply_3170" type="Multiply" version="opset1">
			<data auto_broadcast="numpy" />
			<input>
				<port id="0" precision="FP32">
					<dim>1</dim>
					<dim>3</dim>
					<dim>20</dim>
					<dim>20</dim>
					<dim>2</dim>
				</port>
				<port id="1" precision="FP32">
					<dim>1</dim>
					<dim>1</dim>
					<dim>1</dim>
					<dim>1</dim>
					<dim>1</dim>
				</port>
			</input>
			<output>
				<port id="2" precision="FP32">
					<dim>1</dim>
					<dim>3</dim>
					<dim>20</dim>
					<dim>20</dim>
					<dim>2</dim>
				</port>
			</output>
		</layer>
		<layer id="505" name="Constant_3172_compressed" type="Const" version="opset1">
			<data element_type="f16" shape="1, 3, 20, 20, 2" offset="3927074" size="4800" />
			<output>
				<port id="0" precision="FP16">
					<dim>1</dim>
					<dim>3</dim>
					<dim>20</dim>
					<dim>20</dim>
					<dim>2</dim>
				</port>
			</output>
		</layer>
		<layer id="506" name="Constant_3172" type="Convert" version="opset1">
			<data destination_type="f32" />
			<rt_info>
				<attribute name="decompression" version="0" />
			</rt_info>
			<input>
				<port id="0" precision="FP16">
					<dim>1</dim>
					<dim>3</dim>
					<dim>20</dim>
					<dim>20</dim>
					<dim>2</dim>
				</port>
			</input>
			<output>
				<port id="1" precision="FP32">
					<dim>1</dim>
					<dim>3</dim>
					<dim>20</dim>
					<dim>20</dim>
					<dim>2</dim>
				</port>
			</output>
		</layer>
		<layer id="507" name="/model.24/Mul_9" type="Add" version="opset1">
			<data auto_broadcast="numpy" />
			<input>
				<port id="0" precision="FP32">
					<dim>1</dim>
					<dim>3</dim>
					<dim>20</dim>
					<dim>20</dim>
					<dim>2</dim>
				</port>
				<port id="1" precision="FP32">
					<dim>1</dim>
					<dim>3</dim>
					<dim>20</dim>
					<dim>20</dim>
					<dim>2</dim>
				</port>
			</input>
			<output>
				<port id="2" precision="FP32" names="/model.24/Mul_9_output_0">
					<dim>1</dim>
					<dim>3</dim>
					<dim>20</dim>
					<dim>20</dim>
					<dim>2</dim>
				</port>
			</output>
		</layer>
		<layer id="508" name="Constant_3198_compressed" type="Const" version="opset1">
			<data element_type="f16" shape="1, 1, 1, 1, 1" offset="2506272" size="2" />
			<output>
				<port id="0" precision="FP16">
					<dim>1</dim>
					<dim>1</dim>
					<dim>1</dim>
					<dim>1</dim>
					<dim>1</dim>
				</port>
			</output>
		</layer>
		<layer id="509" name="Constant_3198" type="Convert" version="opset1">
			<data destination_type="f32" />
			<rt_info>
				<attribute name="decompression" version="0" />
			</rt_info>
			<input>
				<port id="0" precision="FP16">
					<dim>1</dim>
					<dim>1</dim>
					<dim>1</dim>
					<dim>1</dim>
					<dim>1</dim>
				</port>
			</input>
			<output>
				<port id="1" precision="FP32">
					<dim>1</dim>
					<dim>1</dim>
					<dim>1</dim>
					<dim>1</dim>
					<dim>1</dim>
				</port>
			</output>
		</layer>
		<layer id="510" name="/model.24/Mul_10" type="Multiply" version="opset1">
			<data auto_broadcast="numpy" />
			<input>
				<port id="0" precision="FP32">
					<dim>1</dim>
					<dim>3</dim>
					<dim>20</dim>
					<dim>20</dim>
					<dim>2</dim>
				</port>
				<port id="1" precision="FP32">
					<dim>1</dim>
					<dim>1</dim>
					<dim>1</dim>
					<dim>1</dim>
					<dim>1</dim>
				</port>
			</input>
			<output>
				<port id="2" precision="FP32" names="/model.24/Mul_10_output_0">
					<dim>1</dim>
					<dim>3</dim>
					<dim>20</dim>
					<dim>20</dim>
					<dim>2</dim>
				</port>
			</output>
		</layer>
		<layer id="511" name="Constant_3199_compressed" type="Const" version="opset1">
			<data element_type="f16" shape="1, 1, 1, 1, 1" offset="2506272" size="2" />
			<output>
				<port id="0" precision="FP16">
					<dim>1</dim>
					<dim>1</dim>
					<dim>1</dim>
					<dim>1</dim>
					<dim>1</dim>
				</port>
			</output>
		</layer>
		<layer id="512" name="Constant_3199" type="Convert" version="opset1">
			<data destination_type="f32" />
			<rt_info>
				<attribute name="decompression" version="0" />
			</rt_info>
			<input>
				<port id="0" precision="FP16">
					<dim>1</dim>
					<dim>1</dim>
					<dim>1</dim>
					<dim>1</dim>
					<dim>1</dim>
				</port>
			</input>
			<output>
				<port id="1" precision="FP32">
					<dim>1</dim>
					<dim>1</dim>
					<dim>1</dim>
					<dim>1</dim>
					<dim>1</dim>
				</port>
			</output>
		</layer>
		<layer id="513" name="/model.24/Pow_2" type="Power" version="opset1">
			<data auto_broadcast="numpy" />
			<input>
				<port id="0" precision="FP32">
					<dim>1</dim>
					<dim>3</dim>
					<dim>20</dim>
					<dim>20</dim>
					<dim>2</dim>
				</port>
				<port id="1" precision="FP32">
					<dim>1</dim>
					<dim>1</dim>
					<dim>1</dim>
					<dim>1</dim>
					<dim>1</dim>
				</port>
			</input>
			<output>
				<port id="2" precision="FP32" names="/model.24/Pow_2_output_0">
					<dim>1</dim>
					<dim>3</dim>
					<dim>20</dim>
					<dim>20</dim>
					<dim>2</dim>
				</port>
			</output>
		</layer>
		<layer id="514" name="/model.24/Constant_22_output_0_compressed" type="Const" version="opset1">
			<data element_type="f16" shape="1, 3, 20, 20, 2" offset="3931874" size="4800" />
			<output>
				<port id="0" precision="FP16">
					<dim>1</dim>
					<dim>3</dim>
					<dim>20</dim>
					<dim>20</dim>
					<dim>2</dim>
				</port>
			</output>
		</layer>
		<layer id="515" name="/model.24/Constant_22_output_0" type="Convert" version="opset1">
			<data destination_type="f32" />
			<rt_info>
				<attribute name="decompression" version="0" />
			</rt_info>
			<input>
				<port id="0" precision="FP16">
					<dim>1</dim>
					<dim>3</dim>
					<dim>20</dim>
					<dim>20</dim>
					<dim>2</dim>
				</port>
			</input>
			<output>
				<port id="1" precision="FP32" names="/model.24/Constant_22_output_0">
					<dim>1</dim>
					<dim>3</dim>
					<dim>20</dim>
					<dim>20</dim>
					<dim>2</dim>
				</port>
			</output>
		</layer>
		<layer id="516" name="/model.24/Mul_11" type="Multiply" version="opset1">
			<data auto_broadcast="numpy" />
			<input>
				<port id="0" precision="FP32">
					<dim>1</dim>
					<dim>3</dim>
					<dim>20</dim>
					<dim>20</dim>
					<dim>2</dim>
				</port>
				<port id="1" precision="FP32">
					<dim>1</dim>
					<dim>3</dim>
					<dim>20</dim>
					<dim>20</dim>
					<dim>2</dim>
				</port>
			</input>
			<output>
				<port id="2" precision="FP32" names="/model.24/Mul_11_output_0">
					<dim>1</dim>
					<dim>3</dim>
					<dim>20</dim>
					<dim>20</dim>
					<dim>2</dim>
				</port>
			</output>
		</layer>
		<layer id="517" name="/model.24/Concat_2" type="Concat" version="opset1">
			<data axis="4" />
			<input>
				<port id="0" precision="FP32">
					<dim>1</dim>
					<dim>3</dim>
					<dim>20</dim>
					<dim>20</dim>
					<dim>2</dim>
				</port>
				<port id="1" precision="FP32">
					<dim>1</dim>
					<dim>3</dim>
					<dim>20</dim>
					<dim>20</dim>
					<dim>2</dim>
				</port>
				<port id="2" precision="FP32">
					<dim>1</dim>
					<dim>3</dim>
					<dim>20</dim>
					<dim>20</dim>
					<dim>81</dim>
				</port>
			</input>
			<output>
				<port id="3" precision="FP32" names="/model.24/Concat_2_output_0">
					<dim>1</dim>
					<dim>3</dim>
					<dim>20</dim>
					<dim>20</dim>
					<dim>85</dim>
				</port>
			</output>
		</layer>
		<layer id="518" name="/model.24/Constant_23_output_0" type="Const" version="opset1">
			<data element_type="i64" shape="3" offset="3936674" size="24" />
			<output>
				<port id="0" precision="I64" names="/model.24/Constant_23_output_0">
					<dim>3</dim>
				</port>
			</output>
		</layer>
		<layer id="519" name="/model.24/Reshape_5" type="Reshape" version="opset1">
			<data special_zero="true" />
			<input>
				<port id="0" precision="FP32">
					<dim>1</dim>
					<dim>3</dim>
					<dim>20</dim>
					<dim>20</dim>
					<dim>85</dim>
				</port>
				<port id="1" precision="I64">
					<dim>3</dim>
				</port>
			</input>
			<output>
				<port id="2" precision="FP32" names="/model.24/Reshape_5_output_0">
					<dim>1</dim>
					<dim>1200</dim>
					<dim>85</dim>
				</port>
			</output>
		</layer>
		<layer id="520" name="output0" type="Concat" version="opset1">
			<data axis="1" />
			<input>
				<port id="0" precision="FP32">
					<dim>1</dim>
					<dim>19200</dim>
					<dim>85</dim>
				</port>
				<port id="1" precision="FP32">
					<dim>1</dim>
					<dim>4800</dim>
					<dim>85</dim>
				</port>
				<port id="2" precision="FP32">
					<dim>1</dim>
					<dim>1200</dim>
					<dim>85</dim>
				</port>
			</input>
			<output>
				<port id="3" precision="FP32" names="output0">
					<dim>1</dim>
					<dim>25200</dim>
					<dim>85</dim>
				</port>
			</output>
		</layer>
		<layer id="521" name="output0/sink_port_0" type="Result" version="opset1">
			<input>
				<port id="0" precision="FP32">
					<dim>1</dim>
					<dim>25200</dim>
					<dim>85</dim>
				</port>
			</input>
		</layer>
	</layers>
	<edges>
		<edge from-layer="0" from-port="0" to-layer="3" to-port="0" />
		<edge from-layer="1" from-port="0" to-layer="2" to-port="0" />
		<edge from-layer="2" from-port="1" to-layer="3" to-port="1" />
		<edge from-layer="3" from-port="2" to-layer="6" to-port="0" />
		<edge from-layer="4" from-port="0" to-layer="5" to-port="0" />
		<edge from-layer="5" from-port="1" to-layer="6" to-port="1" />
		<edge from-layer="6" from-port="2" to-layer="7" to-port="0" />
		<edge from-layer="7" from-port="1" to-layer="10" to-port="0" />
		<edge from-layer="8" from-port="0" to-layer="9" to-port="0" />
		<edge from-layer="9" from-port="1" to-layer="10" to-port="1" />
		<edge from-layer="10" from-port="2" to-layer="13" to-port="0" />
		<edge from-layer="11" from-port="0" to-layer="12" to-port="0" />
		<edge from-layer="12" from-port="1" to-layer="13" to-port="1" />
		<edge from-layer="13" from-port="2" to-layer="14" to-port="0" />
		<edge from-layer="14" from-port="1" to-layer="17" to-port="0" />
		<edge from-layer="14" from-port="1" to-layer="39" to-port="0" />
		<edge from-layer="15" from-port="0" to-layer="16" to-port="0" />
		<edge from-layer="16" from-port="1" to-layer="17" to-port="1" />
		<edge from-layer="17" from-port="2" to-layer="20" to-port="0" />
		<edge from-layer="18" from-port="0" to-layer="19" to-port="0" />
		<edge from-layer="19" from-port="1" to-layer="20" to-port="1" />
		<edge from-layer="20" from-port="2" to-layer="21" to-port="0" />
		<edge from-layer="21" from-port="1" to-layer="24" to-port="0" />
		<edge from-layer="21" from-port="1" to-layer="36" to-port="0" />
		<edge from-layer="22" from-port="0" to-layer="23" to-port="0" />
		<edge from-layer="23" from-port="1" to-layer="24" to-port="1" />
		<edge from-layer="24" from-port="2" to-layer="27" to-port="0" />
		<edge from-layer="25" from-port="0" to-layer="26" to-port="0" />
		<edge from-layer="26" from-port="1" to-layer="27" to-port="1" />
		<edge from-layer="27" from-port="2" to-layer="28" to-port="0" />
		<edge from-layer="28" from-port="1" to-layer="31" to-port="0" />
		<edge from-layer="29" from-port="0" to-layer="30" to-port="0" />
		<edge from-layer="30" from-port="1" to-layer="31" to-port="1" />
		<edge from-layer="31" from-port="2" to-layer="34" to-port="0" />
		<edge from-layer="32" from-port="0" to-layer="33" to-port="0" />
		<edge from-layer="33" from-port="1" to-layer="34" to-port="1" />
		<edge from-layer="34" from-port="2" to-layer="35" to-port="0" />
		<edge from-layer="35" from-port="1" to-layer="36" to-port="1" />
		<edge from-layer="36" from-port="2" to-layer="44" to-port="0" />
		<edge from-layer="37" from-port="0" to-layer="38" to-port="0" />
		<edge from-layer="38" from-port="1" to-layer="39" to-port="1" />
		<edge from-layer="39" from-port="2" to-layer="42" to-port="0" />
		<edge from-layer="40" from-port="0" to-layer="41" to-port="0" />
		<edge from-layer="41" from-port="1" to-layer="42" to-port="1" />
		<edge from-layer="42" from-port="2" to-layer="43" to-port="0" />
		<edge from-layer="43" from-port="1" to-layer="44" to-port="1" />
		<edge from-layer="44" from-port="2" to-layer="47" to-port="0" />
		<edge from-layer="45" from-port="0" to-layer="46" to-port="0" />
		<edge from-layer="46" from-port="1" to-layer="47" to-port="1" />
		<edge from-layer="47" from-port="2" to-layer="50" to-port="0" />
		<edge from-layer="48" from-port="0" to-layer="49" to-port="0" />
		<edge from-layer="49" from-port="1" to-layer="50" to-port="1" />
		<edge from-layer="50" from-port="2" to-layer="51" to-port="0" />
		<edge from-layer="51" from-port="1" to-layer="54" to-port="0" />
		<edge from-layer="52" from-port="0" to-layer="53" to-port="0" />
		<edge from-layer="53" from-port="1" to-layer="54" to-port="1" />
		<edge from-layer="54" from-port="2" to-layer="57" to-port="0" />
		<edge from-layer="55" from-port="0" to-layer="56" to-port="0" />
		<edge from-layer="56" from-port="1" to-layer="57" to-port="1" />
		<edge from-layer="57" from-port="2" to-layer="58" to-port="0" />
		<edge from-layer="58" from-port="1" to-layer="61" to-port="0" />
		<edge from-layer="58" from-port="1" to-layer="98" to-port="0" />
		<edge from-layer="59" from-port="0" to-layer="60" to-port="0" />
		<edge from-layer="60" from-port="1" to-layer="61" to-port="1" />
		<edge from-layer="61" from-port="2" to-layer="64" to-port="0" />
		<edge from-layer="62" from-port="0" to-layer="63" to-port="0" />
		<edge from-layer="63" from-port="1" to-layer="64" to-port="1" />
		<edge from-layer="64" from-port="2" to-layer="65" to-port="0" />
		<edge from-layer="65" from-port="1" to-layer="68" to-port="0" />
		<edge from-layer="65" from-port="1" to-layer="80" to-port="0" />
		<edge from-layer="66" from-port="0" to-layer="67" to-port="0" />
		<edge from-layer="67" from-port="1" to-layer="68" to-port="1" />
		<edge from-layer="68" from-port="2" to-layer="71" to-port="0" />
		<edge from-layer="69" from-port="0" to-layer="70" to-port="0" />
		<edge from-layer="70" from-port="1" to-layer="71" to-port="1" />
		<edge from-layer="71" from-port="2" to-layer="72" to-port="0" />
		<edge from-layer="72" from-port="1" to-layer="75" to-port="0" />
		<edge from-layer="73" from-port="0" to-layer="74" to-port="0" />
		<edge from-layer="74" from-port="1" to-layer="75" to-port="1" />
		<edge from-layer="75" from-port="2" to-layer="78" to-port="0" />
		<edge from-layer="76" from-port="0" to-layer="77" to-port="0" />
		<edge from-layer="77" from-port="1" to-layer="78" to-port="1" />
		<edge from-layer="78" from-port="2" to-layer="79" to-port="0" />
		<edge from-layer="79" from-port="1" to-layer="80" to-port="1" />
		<edge from-layer="80" from-port="2" to-layer="95" to-port="0" />
		<edge from-layer="80" from-port="2" to-layer="83" to-port="0" />
		<edge from-layer="81" from-port="0" to-layer="82" to-port="0" />
		<edge from-layer="82" from-port="1" to-layer="83" to-port="1" />
		<edge from-layer="83" from-port="2" to-layer="86" to-port="0" />
		<edge from-layer="84" from-port="0" to-layer="85" to-port="0" />
		<edge from-layer="85" from-port="1" to-layer="86" to-port="1" />
		<edge from-layer="86" from-port="2" to-layer="87" to-port="0" />
		<edge from-layer="87" from-port="1" to-layer="90" to-port="0" />
		<edge from-layer="88" from-port="0" to-layer="89" to-port="0" />
		<edge from-layer="89" from-port="1" to-layer="90" to-port="1" />
		<edge from-layer="90" from-port="2" to-layer="93" to-port="0" />
		<edge from-layer="91" from-port="0" to-layer="92" to-port="0" />
		<edge from-layer="92" from-port="1" to-layer="93" to-port="1" />
		<edge from-layer="93" from-port="2" to-layer="94" to-port="0" />
		<edge from-layer="94" from-port="1" to-layer="95" to-port="1" />
		<edge from-layer="95" from-port="2" to-layer="103" to-port="0" />
		<edge from-layer="96" from-port="0" to-layer="97" to-port="0" />
		<edge from-layer="97" from-port="1" to-layer="98" to-port="1" />
		<edge from-layer="98" from-port="2" to-layer="101" to-port="0" />
		<edge from-layer="99" from-port="0" to-layer="100" to-port="0" />
		<edge from-layer="100" from-port="1" to-layer="101" to-port="1" />
		<edge from-layer="101" from-port="2" to-layer="102" to-port="0" />
		<edge from-layer="102" from-port="1" to-layer="103" to-port="1" />
		<edge from-layer="103" from-port="2" to-layer="106" to-port="0" />
		<edge from-layer="104" from-port="0" to-layer="105" to-port="0" />
		<edge from-layer="105" from-port="1" to-layer="106" to-port="1" />
		<edge from-layer="106" from-port="2" to-layer="109" to-port="0" />
		<edge from-layer="107" from-port="0" to-layer="108" to-port="0" />
		<edge from-layer="108" from-port="1" to-layer="109" to-port="1" />
		<edge from-layer="109" from-port="2" to-layer="110" to-port="0" />
		<edge from-layer="110" from-port="1" to-layer="113" to-port="0" />
		<edge from-layer="110" from-port="1" to-layer="301" to-port="1" />
		<edge from-layer="111" from-port="0" to-layer="112" to-port="0" />
		<edge from-layer="112" from-port="1" to-layer="113" to-port="1" />
		<edge from-layer="113" from-port="2" to-layer="116" to-port="0" />
		<edge from-layer="114" from-port="0" to-layer="115" to-port="0" />
		<edge from-layer="115" from-port="1" to-layer="116" to-port="1" />
		<edge from-layer="116" from-port="2" to-layer="117" to-port="0" />
		<edge from-layer="117" from-port="1" to-layer="172" to-port="0" />
		<edge from-layer="117" from-port="1" to-layer="120" to-port="0" />
		<edge from-layer="118" from-port="0" to-layer="119" to-port="0" />
		<edge from-layer="119" from-port="1" to-layer="120" to-port="1" />
		<edge from-layer="120" from-port="2" to-layer="123" to-port="0" />
		<edge from-layer="121" from-port="0" to-layer="122" to-port="0" />
		<edge from-layer="122" from-port="1" to-layer="123" to-port="1" />
		<edge from-layer="123" from-port="2" to-layer="124" to-port="0" />
		<edge from-layer="124" from-port="1" to-layer="127" to-port="0" />
		<edge from-layer="124" from-port="1" to-layer="139" to-port="0" />
		<edge from-layer="125" from-port="0" to-layer="126" to-port="0" />
		<edge from-layer="126" from-port="1" to-layer="127" to-port="1" />
		<edge from-layer="127" from-port="2" to-layer="130" to-port="0" />
		<edge from-layer="128" from-port="0" to-layer="129" to-port="0" />
		<edge from-layer="129" from-port="1" to-layer="130" to-port="1" />
		<edge from-layer="130" from-port="2" to-layer="131" to-port="0" />
		<edge from-layer="131" from-port="1" to-layer="134" to-port="0" />
		<edge from-layer="132" from-port="0" to-layer="133" to-port="0" />
		<edge from-layer="133" from-port="1" to-layer="134" to-port="1" />
		<edge from-layer="134" from-port="2" to-layer="137" to-port="0" />
		<edge from-layer="135" from-port="0" to-layer="136" to-port="0" />
		<edge from-layer="136" from-port="1" to-layer="137" to-port="1" />
		<edge from-layer="137" from-port="2" to-layer="138" to-port="0" />
		<edge from-layer="138" from-port="1" to-layer="139" to-port="1" />
		<edge from-layer="139" from-port="2" to-layer="142" to-port="0" />
		<edge from-layer="139" from-port="2" to-layer="154" to-port="0" />
		<edge from-layer="140" from-port="0" to-layer="141" to-port="0" />
		<edge from-layer="141" from-port="1" to-layer="142" to-port="1" />
		<edge from-layer="142" from-port="2" to-layer="145" to-port="0" />
		<edge from-layer="143" from-port="0" to-layer="144" to-port="0" />
		<edge from-layer="144" from-port="1" to-layer="145" to-port="1" />
		<edge from-layer="145" from-port="2" to-layer="146" to-port="0" />
		<edge from-layer="146" from-port="1" to-layer="149" to-port="0" />
		<edge from-layer="147" from-port="0" to-layer="148" to-port="0" />
		<edge from-layer="148" from-port="1" to-layer="149" to-port="1" />
		<edge from-layer="149" from-port="2" to-layer="152" to-port="0" />
		<edge from-layer="150" from-port="0" to-layer="151" to-port="0" />
		<edge from-layer="151" from-port="1" to-layer="152" to-port="1" />
		<edge from-layer="152" from-port="2" to-layer="153" to-port="0" />
		<edge from-layer="153" from-port="1" to-layer="154" to-port="1" />
		<edge from-layer="154" from-port="2" to-layer="157" to-port="0" />
		<edge from-layer="154" from-port="2" to-layer="169" to-port="0" />
		<edge from-layer="155" from-port="0" to-layer="156" to-port="0" />
		<edge from-layer="156" from-port="1" to-layer="157" to-port="1" />
		<edge from-layer="157" from-port="2" to-layer="160" to-port="0" />
		<edge from-layer="158" from-port="0" to-layer="159" to-port="0" />
		<edge from-layer="159" from-port="1" to-layer="160" to-port="1" />
		<edge from-layer="160" from-port="2" to-layer="161" to-port="0" />
		<edge from-layer="161" from-port="1" to-layer="164" to-port="0" />
		<edge from-layer="162" from-port="0" to-layer="163" to-port="0" />
		<edge from-layer="163" from-port="1" to-layer="164" to-port="1" />
		<edge from-layer="164" from-port="2" to-layer="167" to-port="0" />
		<edge from-layer="165" from-port="0" to-layer="166" to-port="0" />
		<edge from-layer="166" from-port="1" to-layer="167" to-port="1" />
		<edge from-layer="167" from-port="2" to-layer="168" to-port="0" />
		<edge from-layer="168" from-port="1" to-layer="169" to-port="1" />
		<edge from-layer="169" from-port="2" to-layer="177" to-port="0" />
		<edge from-layer="170" from-port="0" to-layer="171" to-port="0" />
		<edge from-layer="171" from-port="1" to-layer="172" to-port="1" />
		<edge from-layer="172" from-port="2" to-layer="175" to-port="0" />
		<edge from-layer="173" from-port="0" to-layer="174" to-port="0" />
		<edge from-layer="174" from-port="1" to-layer="175" to-port="1" />
		<edge from-layer="175" from-port="2" to-layer="176" to-port="0" />
		<edge from-layer="176" from-port="1" to-layer="177" to-port="1" />
		<edge from-layer="177" from-port="2" to-layer="180" to-port="0" />
		<edge from-layer="178" from-port="0" to-layer="179" to-port="0" />
		<edge from-layer="179" from-port="1" to-layer="180" to-port="1" />
		<edge from-layer="180" from-port="2" to-layer="183" to-port="0" />
		<edge from-layer="181" from-port="0" to-layer="182" to-port="0" />
		<edge from-layer="182" from-port="1" to-layer="183" to-port="1" />
		<edge from-layer="183" from-port="2" to-layer="184" to-port="0" />
		<edge from-layer="184" from-port="1" to-layer="187" to-port="0" />
		<edge from-layer="184" from-port="1" to-layer="256" to-port="1" />
		<edge from-layer="185" from-port="0" to-layer="186" to-port="0" />
		<edge from-layer="186" from-port="1" to-layer="187" to-port="1" />
		<edge from-layer="187" from-port="2" to-layer="190" to-port="0" />
		<edge from-layer="188" from-port="0" to-layer="189" to-port="0" />
		<edge from-layer="189" from-port="1" to-layer="190" to-port="1" />
		<edge from-layer="190" from-port="2" to-layer="191" to-port="0" />
		<edge from-layer="191" from-port="1" to-layer="194" to-port="0" />
		<edge from-layer="191" from-port="1" to-layer="216" to-port="0" />
		<edge from-layer="192" from-port="0" to-layer="193" to-port="0" />
		<edge from-layer="193" from-port="1" to-layer="194" to-port="1" />
		<edge from-layer="194" from-port="2" to-layer="197" to-port="0" />
		<edge from-layer="195" from-port="0" to-layer="196" to-port="0" />
		<edge from-layer="196" from-port="1" to-layer="197" to-port="1" />
		<edge from-layer="197" from-port="2" to-layer="198" to-port="0" />
		<edge from-layer="198" from-port="1" to-layer="201" to-port="0" />
		<edge from-layer="198" from-port="1" to-layer="213" to-port="0" />
		<edge from-layer="199" from-port="0" to-layer="200" to-port="0" />
		<edge from-layer="200" from-port="1" to-layer="201" to-port="1" />
		<edge from-layer="201" from-port="2" to-layer="204" to-port="0" />
		<edge from-layer="202" from-port="0" to-layer="203" to-port="0" />
		<edge from-layer="203" from-port="1" to-layer="204" to-port="1" />
		<edge from-layer="204" from-port="2" to-layer="205" to-port="0" />
		<edge from-layer="205" from-port="1" to-layer="208" to-port="0" />
		<edge from-layer="206" from-port="0" to-layer="207" to-port="0" />
		<edge from-layer="207" from-port="1" to-layer="208" to-port="1" />
		<edge from-layer="208" from-port="2" to-layer="211" to-port="0" />
		<edge from-layer="209" from-port="0" to-layer="210" to-port="0" />
		<edge from-layer="210" from-port="1" to-layer="211" to-port="1" />
		<edge from-layer="211" from-port="2" to-layer="212" to-port="0" />
		<edge from-layer="212" from-port="1" to-layer="213" to-port="1" />
		<edge from-layer="213" from-port="2" to-layer="221" to-port="0" />
		<edge from-layer="214" from-port="0" to-layer="215" to-port="0" />
		<edge from-layer="215" from-port="1" to-layer="216" to-port="1" />
		<edge from-layer="216" from-port="2" to-layer="219" to-port="0" />
		<edge from-layer="217" from-port="0" to-layer="218" to-port="0" />
		<edge from-layer="218" from-port="1" to-layer="219" to-port="1" />
		<edge from-layer="219" from-port="2" to-layer="220" to-port="0" />
		<edge from-layer="220" from-port="1" to-layer="221" to-port="1" />
		<edge from-layer="221" from-port="2" to-layer="224" to-port="0" />
		<edge from-layer="222" from-port="0" to-layer="223" to-port="0" />
		<edge from-layer="223" from-port="1" to-layer="224" to-port="1" />
		<edge from-layer="224" from-port="2" to-layer="227" to-port="0" />
		<edge from-layer="225" from-port="0" to-layer="226" to-port="0" />
		<edge from-layer="226" from-port="1" to-layer="227" to-port="1" />
		<edge from-layer="227" from-port="2" to-layer="228" to-port="0" />
		<edge from-layer="228" from-port="1" to-layer="231" to-port="0" />
		<edge from-layer="229" from-port="0" to-layer="230" to-port="0" />
		<edge from-layer="230" from-port="1" to-layer="231" to-port="1" />
		<edge from-layer="231" from-port="2" to-layer="234" to-port="0" />
		<edge from-layer="232" from-port="0" to-layer="233" to-port="0" />
		<edge from-layer="233" from-port="1" to-layer="234" to-port="1" />
		<edge from-layer="234" from-port="2" to-layer="235" to-port="0" />
		<edge from-layer="235" from-port="1" to-layer="236" to-port="0" />
		<edge from-layer="235" from-port="1" to-layer="239" to-port="0" />
		<edge from-layer="236" from-port="1" to-layer="239" to-port="1" />
		<edge from-layer="236" from-port="1" to-layer="237" to-port="0" />
		<edge from-layer="237" from-port="1" to-layer="238" to-port="0" />
		<edge from-layer="237" from-port="1" to-layer="239" to-port="2" />
		<edge from-layer="238" from-port="1" to-layer="239" to-port="3" />
		<edge from-layer="239" from-port="4" to-layer="242" to-port="0" />
		<edge from-layer="240" from-port="0" to-layer="241" to-port="0" />
		<edge from-layer="241" from-port="1" to-layer="242" to-port="1" />
		<edge from-layer="242" from-port="2" to-layer="245" to-port="0" />
		<edge from-layer="243" from-port="0" to-layer="244" to-port="0" />
		<edge from-layer="244" from-port="1" to-layer="245" to-port="1" />
		<edge from-layer="245" from-port="2" to-layer="246" to-port="0" />
		<edge from-layer="246" from-port="1" to-layer="249" to-port="0" />
		<edge from-layer="247" from-port="0" to-layer="248" to-port="0" />
		<edge from-layer="248" from-port="1" to-layer="249" to-port="1" />
		<edge from-layer="249" from-port="2" to-layer="252" to-port="0" />
		<edge from-layer="250" from-port="0" to-layer="251" to-port="0" />
		<edge from-layer="251" from-port="1" to-layer="252" to-port="1" />
		<edge from-layer="252" from-port="2" to-layer="253" to-port="0" />
		<edge from-layer="253" from-port="1" to-layer="255" to-port="0" />
		<edge from-layer="253" from-port="1" to-layer="452" to-port="1" />
		<edge from-layer="254" from-port="0" to-layer="255" to-port="1" />
		<edge from-layer="254" from-port="0" to-layer="300" to-port="1" />
		<edge from-layer="255" from-port="2" to-layer="256" to-port="0" />
		<edge from-layer="256" from-port="2" to-layer="259" to-port="0" />
		<edge from-layer="256" from-port="2" to-layer="280" to-port="0" />
		<edge from-layer="257" from-port="0" to-layer="258" to-port="0" />
		<edge from-layer="258" from-port="1" to-layer="259" to-port="1" />
		<edge from-layer="259" from-port="2" to-layer="262" to-port="0" />
		<edge from-layer="260" from-port="0" to-layer="261" to-port="0" />
		<edge from-layer="261" from-port="1" to-layer="262" to-port="1" />
		<edge from-layer="262" from-port="2" to-layer="263" to-port="0" />
		<edge from-layer="263" from-port="1" to-layer="266" to-port="0" />
		<edge from-layer="264" from-port="0" to-layer="265" to-port="0" />
		<edge from-layer="265" from-port="1" to-layer="266" to-port="1" />
		<edge from-layer="266" from-port="2" to-layer="269" to-port="0" />
		<edge from-layer="267" from-port="0" to-layer="268" to-port="0" />
		<edge from-layer="268" from-port="1" to-layer="269" to-port="1" />
		<edge from-layer="269" from-port="2" to-layer="270" to-port="0" />
		<edge from-layer="270" from-port="1" to-layer="273" to-port="0" />
		<edge from-layer="271" from-port="0" to-layer="272" to-port="0" />
		<edge from-layer="272" from-port="1" to-layer="273" to-port="1" />
		<edge from-layer="273" from-port="2" to-layer="276" to-port="0" />
		<edge from-layer="274" from-port="0" to-layer="275" to-port="0" />
		<edge from-layer="275" from-port="1" to-layer="276" to-port="1" />
		<edge from-layer="276" from-port="2" to-layer="277" to-port="0" />
		<edge from-layer="277" from-port="1" to-layer="285" to-port="0" />
		<edge from-layer="278" from-port="0" to-layer="279" to-port="0" />
		<edge from-layer="279" from-port="1" to-layer="280" to-port="1" />
		<edge from-layer="280" from-port="2" to-layer="283" to-port="0" />
		<edge from-layer="281" from-port="0" to-layer="282" to-port="0" />
		<edge from-layer="282" from-port="1" to-layer="283" to-port="1" />
		<edge from-layer="283" from-port="2" to-layer="284" to-port="0" />
		<edge from-layer="284" from-port="1" to-layer="285" to-port="1" />
		<edge from-layer="285" from-port="2" to-layer="288" to-port="0" />
		<edge from-layer="286" from-port="0" to-layer="287" to-port="0" />
		<edge from-layer="287" from-port="1" to-layer="288" to-port="1" />
		<edge from-layer="288" from-port="2" to-layer="291" to-port="0" />
		<edge from-layer="289" from-port="0" to-layer="290" to-port="0" />
		<edge from-layer="290" from-port="1" to-layer="291" to-port="1" />
		<edge from-layer="291" from-port="2" to-layer="292" to-port="0" />
		<edge from-layer="292" from-port="1" to-layer="295" to-port="0" />
		<edge from-layer="293" from-port="0" to-layer="294" to-port="0" />
		<edge from-layer="294" from-port="1" to-layer="295" to-port="1" />
		<edge from-layer="295" from-port="2" to-layer="298" to-port="0" />
		<edge from-layer="296" from-port="0" to-layer="297" to-port="0" />
		<edge from-layer="297" from-port="1" to-layer="298" to-port="1" />
		<edge from-layer="298" from-port="2" to-layer="299" to-port="0" />
		<edge from-layer="299" from-port="1" to-layer="377" to-port="1" />
		<edge from-layer="299" from-port="1" to-layer="300" to-port="0" />
		<edge from-layer="300" from-port="2" to-layer="301" to-port="0" />
		<edge from-layer="301" from-port="2" to-layer="304" to-port="0" />
		<edge from-layer="301" from-port="2" to-layer="325" to-port="0" />
		<edge from-layer="302" from-port="0" to-layer="303" to-port="0" />
		<edge from-layer="303" from-port="1" to-layer="304" to-port="1" />
		<edge from-layer="304" from-port="2" to-layer="307" to-port="0" />
		<edge from-layer="305" from-port="0" to-layer="306" to-port="0" />
		<edge from-layer="306" from-port="1" to-layer="307" to-port="1" />
		<edge from-layer="307" from-port="2" to-layer="308" to-port="0" />
		<edge from-layer="308" from-port="1" to-layer="311" to-port="0" />
		<edge from-layer="309" from-port="0" to-layer="310" to-port="0" />
		<edge from-layer="310" from-port="1" to-layer="311" to-port="1" />
		<edge from-layer="311" from-port="2" to-layer="314" to-port="0" />
		<edge from-layer="312" from-port="0" to-layer="313" to-port="0" />
		<edge from-layer="313" from-port="1" to-layer="314" to-port="1" />
		<edge from-layer="314" from-port="2" to-layer="315" to-port="0" />
		<edge from-layer="315" from-port="1" to-layer="318" to-port="0" />
		<edge from-layer="316" from-port="0" to-layer="317" to-port="0" />
		<edge from-layer="317" from-port="1" to-layer="318" to-port="1" />
		<edge from-layer="318" from-port="2" to-layer="321" to-port="0" />
		<edge from-layer="319" from-port="0" to-layer="320" to-port="0" />
		<edge from-layer="320" from-port="1" to-layer="321" to-port="1" />
		<edge from-layer="321" from-port="2" to-layer="322" to-port="0" />
		<edge from-layer="322" from-port="1" to-layer="330" to-port="0" />
		<edge from-layer="323" from-port="0" to-layer="324" to-port="0" />
		<edge from-layer="324" from-port="1" to-layer="325" to-port="1" />
		<edge from-layer="325" from-port="2" to-layer="328" to-port="0" />
		<edge from-layer="326" from-port="0" to-layer="327" to-port="0" />
		<edge from-layer="327" from-port="1" to-layer="328" to-port="1" />
		<edge from-layer="328" from-port="2" to-layer="329" to-port="0" />
		<edge from-layer="329" from-port="1" to-layer="330" to-port="1" />
		<edge from-layer="330" from-port="2" to-layer="333" to-port="0" />
		<edge from-layer="331" from-port="0" to-layer="332" to-port="0" />
		<edge from-layer="332" from-port="1" to-layer="333" to-port="1" />
		<edge from-layer="333" from-port="2" to-layer="336" to-port="0" />
		<edge from-layer="334" from-port="0" to-layer="335" to-port="0" />
		<edge from-layer="335" from-port="1" to-layer="336" to-port="1" />
		<edge from-layer="336" from-port="2" to-layer="337" to-port="0" />
		<edge from-layer="337" from-port="1" to-layer="372" to-port="0" />
		<edge from-layer="337" from-port="1" to-layer="340" to-port="0" />
		<edge from-layer="338" from-port="0" to-layer="339" to-port="0" />
		<edge from-layer="339" from-port="1" to-layer="340" to-port="1" />
		<edge from-layer="340" from-port="2" to-layer="343" to-port="0" />
		<edge from-layer="341" from-port="0" to-layer="342" to-port="0" />
		<edge from-layer="342" from-port="1" to-layer="343" to-port="1" />
		<edge from-layer="343" from-port="2" to-layer="345" to-port="0" />
		<edge from-layer="344" from-port="0" to-layer="345" to-port="1" />
		<edge from-layer="345" from-port="2" to-layer="347" to-port="0" />
		<edge from-layer="346" from-port="0" to-layer="347" to-port="1" />
		<edge from-layer="347" from-port="2" to-layer="348" to-port="0" />
		<edge from-layer="348" from-port="1" to-layer="351" to-port="0" />
		<edge from-layer="349" from-port="0" to-layer="351" to-port="1" />
		<edge from-layer="350" from-port="0" to-layer="501" to-port="2" />
		<edge from-layer="350" from-port="0" to-layer="426" to-port="2" />
		<edge from-layer="350" from-port="0" to-layer="351" to-port="2" />
		<edge from-layer="351" from-port="4" to-layer="360" to-port="0" />
		<edge from-layer="351" from-port="3" to-layer="354" to-port="0" />
		<edge from-layer="351" from-port="5" to-layer="367" to-port="2" />
		<edge from-layer="352" from-port="0" to-layer="353" to-port="0" />
		<edge from-layer="353" from-port="1" to-layer="354" to-port="1" />
		<edge from-layer="354" from-port="2" to-layer="357" to-port="0" />
		<edge from-layer="355" from-port="0" to-layer="356" to-port="0" />
		<edge from-layer="356" from-port="1" to-layer="357" to-port="1" />
		<edge from-layer="357" from-port="2" to-layer="367" to-port="0" />
		<edge from-layer="358" from-port="0" to-layer="359" to-port="0" />
		<edge from-layer="359" from-port="1" to-layer="360" to-port="1" />
		<edge from-layer="360" from-port="2" to-layer="363" to-port="0" />
		<edge from-layer="361" from-port="0" to-layer="362" to-port="0" />
		<edge from-layer="362" from-port="1" to-layer="363" to-port="1" />
		<edge from-layer="363" from-port="2" to-layer="366" to-port="0" />
		<edge from-layer="364" from-port="0" to-layer="365" to-port="0" />
		<edge from-layer="365" from-port="1" to-layer="366" to-port="1" />
		<edge from-layer="366" from-port="2" to-layer="367" to-port="1" />
		<edge from-layer="367" from-port="3" to-layer="369" to-port="0" />
		<edge from-layer="368" from-port="0" to-layer="369" to-port="1" />
		<edge from-layer="369" from-port="2" to-layer="520" to-port="0" />
		<edge from-layer="370" from-port="0" to-layer="371" to-port="0" />
		<edge from-layer="371" from-port="1" to-layer="372" to-port="1" />
		<edge from-layer="372" from-port="2" to-layer="375" to-port="0" />
		<edge from-layer="373" from-port="0" to-layer="374" to-port="0" />
		<edge from-layer="374" from-port="1" to-layer="375" to-port="1" />
		<edge from-layer="375" from-port="2" to-layer="376" to-port="0" />
		<edge from-layer="376" from-port="1" to-layer="377" to-port="0" />
		<edge from-layer="377" from-port="2" to-layer="380" to-port="0" />
		<edge from-layer="377" from-port="2" to-layer="401" to-port="0" />
		<edge from-layer="378" from-port="0" to-layer="379" to-port="0" />
		<edge from-layer="379" from-port="1" to-layer="380" to-port="1" />
		<edge from-layer="380" from-port="2" to-layer="383" to-port="0" />
		<edge from-layer="381" from-port="0" to-layer="382" to-port="0" />
		<edge from-layer="382" from-port="1" to-layer="383" to-port="1" />
		<edge from-layer="383" from-port="2" to-layer="384" to-port="0" />
		<edge from-layer="384" from-port="1" to-layer="387" to-port="0" />
		<edge from-layer="385" from-port="0" to-layer="386" to-port="0" />
		<edge from-layer="386" from-port="1" to-layer="387" to-port="1" />
		<edge from-layer="387" from-port="2" to-layer="390" to-port="0" />
		<edge from-layer="388" from-port="0" to-layer="389" to-port="0" />
		<edge from-layer="389" from-port="1" to-layer="390" to-port="1" />
		<edge from-layer="390" from-port="2" to-layer="391" to-port="0" />
		<edge from-layer="391" from-port="1" to-layer="394" to-port="0" />
		<edge from-layer="392" from-port="0" to-layer="393" to-port="0" />
		<edge from-layer="393" from-port="1" to-layer="394" to-port="1" />
		<edge from-layer="394" from-port="2" to-layer="397" to-port="0" />
		<edge from-layer="395" from-port="0" to-layer="396" to-port="0" />
		<edge from-layer="396" from-port="1" to-layer="397" to-port="1" />
		<edge from-layer="397" from-port="2" to-layer="398" to-port="0" />
		<edge from-layer="398" from-port="1" to-layer="406" to-port="0" />
		<edge from-layer="399" from-port="0" to-layer="400" to-port="0" />
		<edge from-layer="400" from-port="1" to-layer="401" to-port="1" />
		<edge from-layer="401" from-port="2" to-layer="404" to-port="0" />
		<edge from-layer="402" from-port="0" to-layer="403" to-port="0" />
		<edge from-layer="403" from-port="1" to-layer="404" to-port="1" />
		<edge from-layer="404" from-port="2" to-layer="405" to-port="0" />
		<edge from-layer="405" from-port="1" to-layer="406" to-port="1" />
		<edge from-layer="406" from-port="2" to-layer="409" to-port="0" />
		<edge from-layer="407" from-port="0" to-layer="408" to-port="0" />
		<edge from-layer="408" from-port="1" to-layer="409" to-port="1" />
		<edge from-layer="409" from-port="2" to-layer="412" to-port="0" />
		<edge from-layer="410" from-port="0" to-layer="411" to-port="0" />
		<edge from-layer="411" from-port="1" to-layer="412" to-port="1" />
		<edge from-layer="412" from-port="2" to-layer="413" to-port="0" />
		<edge from-layer="413" from-port="1" to-layer="416" to-port="0" />
		<edge from-layer="413" from-port="1" to-layer="447" to-port="0" />
		<edge from-layer="414" from-port="0" to-layer="415" to-port="0" />
		<edge from-layer="415" from-port="1" to-layer="416" to-port="1" />
		<edge from-layer="416" from-port="2" to-layer="419" to-port="0" />
		<edge from-layer="417" from-port="0" to-layer="418" to-port="0" />
		<edge from-layer="418" from-port="1" to-layer="419" to-port="1" />
		<edge from-layer="419" from-port="2" to-layer="421" to-port="0" />
		<edge from-layer="420" from-port="0" to-layer="421" to-port="1" />
		<edge from-layer="421" from-port="2" to-layer="423" to-port="0" />
		<edge from-layer="422" from-port="0" to-layer="423" to-port="1" />
		<edge from-layer="423" from-port="2" to-layer="424" to-port="0" />
		<edge from-layer="424" from-port="1" to-layer="426" to-port="0" />
		<edge from-layer="425" from-port="0" to-layer="426" to-port="1" />
		<edge from-layer="426" from-port="3" to-layer="429" to-port="0" />
		<edge from-layer="426" from-port="4" to-layer="435" to-port="0" />
		<edge from-layer="426" from-port="5" to-layer="442" to-port="2" />
		<edge from-layer="427" from-port="0" to-layer="428" to-port="0" />
		<edge from-layer="428" from-port="1" to-layer="429" to-port="1" />
		<edge from-layer="429" from-port="2" to-layer="432" to-port="0" />
		<edge from-layer="430" from-port="0" to-layer="431" to-port="0" />
		<edge from-layer="431" from-port="1" to-layer="432" to-port="1" />
		<edge from-layer="432" from-port="2" to-layer="442" to-port="0" />
		<edge from-layer="433" from-port="0" to-layer="434" to-port="0" />
		<edge from-layer="434" from-port="1" to-layer="435" to-port="1" />
		<edge from-layer="435" from-port="2" to-layer="438" to-port="0" />
		<edge from-layer="436" from-port="0" to-layer="437" to-port="0" />
		<edge from-layer="437" from-port="1" to-layer="438" to-port="1" />
		<edge from-layer="438" from-port="2" to-layer="441" to-port="0" />
		<edge from-layer="439" from-port="0" to-layer="440" to-port="0" />
		<edge from-layer="440" from-port="1" to-layer="441" to-port="1" />
		<edge from-layer="441" from-port="2" to-layer="442" to-port="1" />
		<edge from-layer="442" from-port="3" to-layer="444" to-port="0" />
		<edge from-layer="443" from-port="0" to-layer="444" to-port="1" />
		<edge from-layer="444" from-port="2" to-layer="520" to-port="1" />
		<edge from-layer="445" from-port="0" to-layer="446" to-port="0" />
		<edge from-layer="446" from-port="1" to-layer="447" to-port="1" />
		<edge from-layer="447" from-port="2" to-layer="450" to-port="0" />
		<edge from-layer="448" from-port="0" to-layer="449" to-port="0" />
		<edge from-layer="449" from-port="1" to-layer="450" to-port="1" />
		<edge from-layer="450" from-port="2" to-layer="451" to-port="0" />
		<edge from-layer="451" from-port="1" to-layer="452" to-port="0" />
		<edge from-layer="452" from-port="2" to-layer="476" to-port="0" />
		<edge from-layer="452" from-port="2" to-layer="455" to-port="0" />
		<edge from-layer="453" from-port="0" to-layer="454" to-port="0" />
		<edge from-layer="454" from-port="1" to-layer="455" to-port="1" />
		<edge from-layer="455" from-port="2" to-layer="458" to-port="0" />
		<edge from-layer="456" from-port="0" to-layer="457" to-port="0" />
		<edge from-layer="457" from-port="1" to-layer="458" to-port="1" />
		<edge from-layer="458" from-port="2" to-layer="459" to-port="0" />
		<edge from-layer="459" from-port="1" to-layer="462" to-port="0" />
		<edge from-layer="460" from-port="0" to-layer="461" to-port="0" />
		<edge from-layer="461" from-port="1" to-layer="462" to-port="1" />
		<edge from-layer="462" from-port="2" to-layer="465" to-port="0" />
		<edge from-layer="463" from-port="0" to-layer="464" to-port="0" />
		<edge from-layer="464" from-port="1" to-layer="465" to-port="1" />
		<edge from-layer="465" from-port="2" to-layer="466" to-port="0" />
		<edge from-layer="466" from-port="1" to-layer="469" to-port="0" />
		<edge from-layer="467" from-port="0" to-layer="468" to-port="0" />
		<edge from-layer="468" from-port="1" to-layer="469" to-port="1" />
		<edge from-layer="469" from-port="2" to-layer="472" to-port="0" />
		<edge from-layer="470" from-port="0" to-layer="471" to-port="0" />
		<edge from-layer="471" from-port="1" to-layer="472" to-port="1" />
		<edge from-layer="472" from-port="2" to-layer="473" to-port="0" />
		<edge from-layer="473" from-port="1" to-layer="481" to-port="0" />
		<edge from-layer="474" from-port="0" to-layer="475" to-port="0" />
		<edge from-layer="475" from-port="1" to-layer="476" to-port="1" />
		<edge from-layer="476" from-port="2" to-layer="479" to-port="0" />
		<edge from-layer="477" from-port="0" to-layer="478" to-port="0" />
		<edge from-layer="478" from-port="1" to-layer="479" to-port="1" />
		<edge from-layer="479" from-port="2" to-layer="480" to-port="0" />
		<edge from-layer="480" from-port="1" to-layer="481" to-port="1" />
		<edge from-layer="481" from-port="2" to-layer="484" to-port="0" />
		<edge from-layer="482" from-port="0" to-layer="483" to-port="0" />
		<edge from-layer="483" from-port="1" to-layer="484" to-port="1" />
		<edge from-layer="484" from-port="2" to-layer="487" to-port="0" />
		<edge from-layer="485" from-port="0" to-layer="486" to-port="0" />
		<edge from-layer="486" from-port="1" to-layer="487" to-port="1" />
		<edge from-layer="487" from-port="2" to-layer="488" to-port="0" />
		<edge from-layer="488" from-port="1" to-layer="491" to-port="0" />
		<edge from-layer="489" from-port="0" to-layer="490" to-port="0" />
		<edge from-layer="490" from-port="1" to-layer="491" to-port="1" />
		<edge from-layer="491" from-port="2" to-layer="494" to-port="0" />
		<edge from-layer="492" from-port="0" to-layer="493" to-port="0" />
		<edge from-layer="493" from-port="1" to-layer="494" to-port="1" />
		<edge from-layer="494" from-port="2" to-layer="496" to-port="0" />
		<edge from-layer="495" from-port="0" to-layer="496" to-port="1" />
		<edge from-layer="496" from-port="2" to-layer="498" to-port="0" />
		<edge from-layer="497" from-port="0" to-layer="498" to-port="1" />
		<edge from-layer="498" from-port="2" to-layer="499" to-port="0" />
		<edge from-layer="499" from-port="1" to-layer="501" to-port="0" />
		<edge from-layer="500" from-port="0" to-layer="501" to-port="1" />
		<edge from-layer="501" from-port="4" to-layer="510" to-port="0" />
		<edge from-layer="501" from-port="5" to-layer="517" to-port="2" />
		<edge from-layer="501" from-port="3" to-layer="504" to-port="0" />
		<edge from-layer="502" from-port="0" to-layer="503" to-port="0" />
		<edge from-layer="503" from-port="1" to-layer="504" to-port="1" />
		<edge from-layer="504" from-port="2" to-layer="507" to-port="0" />
		<edge from-layer="505" from-port="0" to-layer="506" to-port="0" />
		<edge from-layer="506" from-port="1" to-layer="507" to-port="1" />
		<edge from-layer="507" from-port="2" to-layer="517" to-port="0" />
		<edge from-layer="508" from-port="0" to-layer="509" to-port="0" />
		<edge from-layer="509" from-port="1" to-layer="510" to-port="1" />
		<edge from-layer="510" from-port="2" to-layer="513" to-port="0" />
		<edge from-layer="511" from-port="0" to-layer="512" to-port="0" />
		<edge from-layer="512" from-port="1" to-layer="513" to-port="1" />
		<edge from-layer="513" from-port="2" to-layer="516" to-port="0" />
		<edge from-layer="514" from-port="0" to-layer="515" to-port="0" />
		<edge from-layer="515" from-port="1" to-layer="516" to-port="1" />
		<edge from-layer="516" from-port="2" to-layer="517" to-port="1" />
		<edge from-layer="517" from-port="3" to-layer="519" to-port="0" />
		<edge from-layer="518" from-port="0" to-layer="519" to-port="1" />
		<edge from-layer="519" from-port="2" to-layer="520" to-port="2" />
		<edge from-layer="520" from-port="3" to-layer="521" to-port="0" />
	</edges>
	<rt_info>
		<MO_version value="2023.0.0-10926-b4452d56304-releases/2023/0" />
		<Runtime_version value="2023.0.0-10926-b4452d56304-releases/2023/0" />
		<conversion_parameters>
			<compress_to_fp16 value="True" />
			<input_model value="DIR/yolov5n.onnx" />
			<input_shape value="[1,3,640,640]" />
			<is_python_api_used value="False" />
			<output_dir value="/content/yolov5/yolo5n_openvino_model" />
			<static_shape value="True" />
		</conversion_parameters>
		<framework>
			<names value="{0: 'person', 1: 'bicycle', 2: 'car', 3: 'motorcycle', 4: 'airplane', 5: 'bus', 6: 'train', 7: 'truck', 8: 'boat', 9: 'traffic light', 10: 'fire hydrant', 11: 'stop sign', 12: 'parking meter', 13: 'bench', 14: 'bird', 15: 'cat', 16: 'dog', 17: 'horse', 18: 'sheep', 19: 'cow', 20: 'elephant', 21: 'bear', 22: 'zebra', 23: 'giraffe', 24: 'backpack', 25: 'umbrella', 26: 'handbag', 27: 'tie', 28: 'suitcase', 29: 'frisbee', 30: 'skis', 31: 'snowboard', 32: 'sports ball', 33: 'kite', 34: 'baseball bat', 35: 'baseball glove', 36: 'skateboard', 37: 'surfboard', 38: 'tennis racket', 39: 'bottle', 40: 'wine glass', 41: 'cup', 42: 'fork', 43: 'knife', 44: 'spoon', 45: 'bowl', 46: 'banana', 47: 'apple', 48: 'sandwich', 49: 'orange', 50: 'broccoli', 51: 'carrot', 52: 'hot dog', 53: 'pizza', 54: 'donut', 55: 'cake', 56: 'chair', 57: 'couch', 58: 'potted plant', 59: 'bed', 60: 'dining table', 61: 'toilet', 62: 'tv', 63: 'laptop', 64: 'mouse', 65: 'remote', 66: 'keyboard', 67: 'cell phone', 68: 'microwave', 69: 'oven', 70: 'toaster', 71: 'sink', 72: 'refrigerator', 73: 'book', 74: 'clock', 75: 'vase', 76: 'scissors', 77: 'teddy bear', 78: 'hair drier', 79: 'toothbrush'}" />
			<stride value="32" />
		</framework>
		<legacy_frontend value="False" />
	</rt_info>
</net>
